Assets/Models/Submissions/MyVolleyballBrain-10999995.onnx (onnx, 70377 bytes, 19 tensors)

discrete_act_size_vector f4 [1, 4]
00000000: 0000 4040 0000 4040 0000 4040 0000 0040
3.0 3.0 3.0 2.0

network_body.observation_encoder.processors.0.normalizer.running_mean f4 [11]
00000000: 91b1 c13c b430 2fbb 32c7 013f 0ecb fb3e
00000010: d6b6 2941 6974 24bc 3e62 57bf 1b4e d2ba
00000020: 848b 58c0 a6c0 0c3c ac4d 003b
0.02364424 -0.002673191 0.5069457 0.49178356 10.607138 -0.01003752 -0.8413428 -0.0016045006
-3.3835154 0.008590853 0.0019577546

network_body._body_endoder.seq_layers.0.weight f4 [64, 11]
00000000: 0fcf c83e b459 7b3e fd94 073f 95db f53e
00000010: a8a8 113f bf78 4d3b 3ed3 3b3e 271b 953d
00000020: 03e6 af3d f09e c63e c08a 9a3e ef6c 2f3e
00000030: 9051 b53e 250e 0f3f 6b7f 88bf 295b e83d
00000040: 9546 473e 8ac3 9cbd 44c0 413f 6009 263d
00000050: 4424 02bf a646 31bf 2b76 1fbf aac8 e83d
00000060: 2110 88be cd7a 4f3e 8442 ce3e aa7d babe
00000070: 7b3a d83d 74c5 b63d 31c5 613e b537 3b3f
00000080: 7912 21be d25f cdbd c11c 2b3d 95e5 05bd
00000090: afd5 77be 8fb7 973e 4d52 33bf 550b b7be
000000a0: 95da 413e ea0f 48bd cc14 a33e 7e88 e4bc
000000b0: 04e0 76be 6e53 e23e 472b 253e 36bd 07bf
000000c0: c068 8ebe 5774 e23c 538e 153d d66b 88bd
000000d0: 9101 3c3d ec45 adbb fde0 013d fc09 943e
000000e0: 6e19 4ebf 1cce 9a3e a35e 653f 3e0f a23e
000000f0: 3390 1abe 653e 7fbe 7a55 533e 161d 05bf
00000100: bb80 c73e 0e62 20bf a898 343f 6fb7 0b3e
00000110: b18a 3ebe 9c6a 2abf d908 3ebf d065 b2bd
00000120: 2b11 943e 8aea e7bd 44c8 7f3e 7150 19bf
00000130: 8057 15be 9b64 65be db15 79be 77dc 173f
00000140: 917f 0d3f 973a dfbc 1313 113f 3efe ee3e
00000150: 2b37 b63e 9ae6 03bf c150 153f 95aa edbe
00000160: f755 d23e f666 a23e e2f1 933e aa9f c43b
00000170: e0dc b43d 3eac 183e 3dcd 893d 126c b23e
00000180: a209 803f ada8 243e 9f4c 1b3f 0f73 91be
00000190: 1dbd 5b3d 3085 c43d d1c1 64be 0d77 14bf
000001a0: 2940 8c3e 91bd 0a3e c902 ba3e a33b acbd
000001b0: b505 a5be a467 4c3e e0ca 8a3e a3d8 9cbe
000001c0: aa40 08bf 63c5 f33e 30a9 a53e e998 0abe
000001d0: 57df 1dbd 1782 d33d ad24 a53c 7ce8 25be
000001e0: 63e7 0fbf da8f 57be d33a ffbd ab55 e83c
000001f0: 0e61 50be ffe8 6abe b271 813e ef53 473f
00000200: c02e 323d c406 103f edff d9be 6987 0c3e
00000210: 406f ac3e f98d 3d3b 7a40 8dbe ca91 a13c
00000220: 77d2 e03d 772d 1fbf 3538 8c3e 53d8 453e
00000230: 30c5 983e 1723 493e fc2b af3d 60f3 25be
00000240: 7dae ae3e 4b6c 463f c80a 713e 9758 4e3e
00000250: ee3e 9f3e 3810 5ebe 6ad0 40be f58f 1e3f
00000260: 4692 02be ef37 103f 6e14 e03d 0afc 48be
00000270: a937 3abf bad8 453e f899 a73e 33b1 0b3e
00000280: 7322 a53c c2de 183d b701 07be 87d7 c4be
00000290: 15ac b83e 97e3 9abe d26e e3be 280c 453d
000002a0: a98a 223e 8ac1 ebbc df10 983e 9ff1 0abe
000002b0: 8f94 423e 8d7b 653f e386 043c 1d06 03bf
000002c0: c194 a33e 4ea6 8abd 07c6 85be 719e bdbe
000002d0: bdfd 153d 2198 de3d 8105 243a 3750 acbe
000002e0: a030 823d 7264 093f 618f d5be ad4a 29bf
000002f0: 0627 abbe 922b 993e 5f47 063f cbca 10bf
00000300: f316 333e dfd2 ab3c 2654 97bc d49e c23e
00000310: 5827 cf3e 21e0 ee3e 8495 533f f5e2 553e
00000320: bd82 9c3e 5a6d a5bd b360 4ebe c7f1 be3e
00000330: c9bf dbbd d9b5 4dbd 9646 ddbd a962 bc3c
00000340: 6719 bf3e 6fb0 5b3e aa2f 973e 07ce e2bd
00000350: 0a94 133f 9306 f4be 7854 0abe 91f2 223f
00000360: ed08 21bf 1e6c a53c ad75 133e ec71 f6be
00000370: c85e 08bf 9f5d 87be daf1 7dbc 0d83 2ebf
00000380: f339 273e d65f 91be 98bd 59be c751 6f3d
00000390: 817f adbd 1eeb f33d 09ac 16be ae43 5cbe
000003a0: d2a4 fb3d aaca a9be eba3 bf3e 92d3 d8bc
000003b0: 0a81 3ebd a7f8 b83d abee b8bc 3317 3cbe
000003c0: 400f 2bbf 0193 2b3f 0ece fcbe 3c55 9ebc
000003d0: 8083 a2be 9ad0 fdbe c301 d3bd 9076 f73b
000003e0: afa9 cebd e49d 1c3e 7768 c63d 314d c23d
000003f0: 8958 823e ded7 ce3d c0a1 373d e69e 583d
0.39220473 0.24545938 0.52961713 0.4801909 0.56897974 0.0031352488 0.18342301 0.072805695
0.08588793 0.38793135 0.30183983 0.17131399 0.3541379 0.5588096 -1.0663885 0.113455124
0.19460519 -0.076544836 0.75684 0.040536284 -0.50836587 -0.69248426 -0.62289685 0.11366399
-0.26574805 0.20261689 0.40285122 -0.36424 0.10558029 0.0892438 0.22047879 0.7313188
-0.15729703 -0.10028042 0.04177547 -0.03268965 -0.24202608 0.29632232 -0.70047456 -0.35750833
0.18931039 -0.0488433 0.31851804 -0.027897116 -0.24108893 0.44204277 0.1612979 -0.5302309
-0.27814293 0.027643366 0.036512684 -0.06661193 0.04589993 -0.0052878764 0.031708706 0.28913867
-0.8050755 0.30235374 0.8959753 0.31652254 -0.1509407 -0.24926145 0.20638075 -0.51997507
0.389654 -0.6264962 0.70545435 0.13644193 -0.18607594 -0.66568923 -0.7423225 -0.087108254
0.28919348 -0.11324032 0.24978739 -0.5988837 -0.1458416 -0.22401659 -0.24324743 0.5932078
0.55272776 -0.027249618 0.5666973 0.46678346 0.35588965 -0.51523745 0.58326346 -0.46419206
0.4108121 0.31719178 0.2889548 0.0060004788 0.08831191 0.14909455 0.06728599 0.34848076
1.000294 0.1607997 0.6066379 -0.28408095 0.05364715 0.09595716 -0.2233956 -0.5799416
0.273927 0.13548876 0.3633025 -0.08409812 -0.32230917 0.19961411 0.27107906 -0.3063403
-0.5322367 0.47611532 0.32355642 -0.13534893 -0.03854307 0.10327547 0.02015909 -0.16201967
-0.56212443 -0.21050969 -0.12462392 0.028361162 -0.20349523 -0.22940443 0.25282055 0.7786245
0.043501616 0.56260324 -0.42578068 0.1372353 0.33678627 0.0028923734 -0.27588254 0.019722838
0.10977643 -0.6217875 0.27386633 0.19320802 0.29837942 0.19642292 0.08553311 -0.16206121
0.341175 0.7750899 0.23539269 0.20150982 0.311027 -0.21685874 -0.18829504 0.6193841
-0.12751111 0.5633535 0.10941397 -0.19627395 -0.7274118 0.19320956 0.32734656 0.13641815
0.020158028 0.037321813 -0.13184248 -0.38445684 0.36068788 -0.30251762 -0.44420487 0.048107296
0.15873207 -0.02877881 0.29700372 -0.13568734 0.19001983 0.8964165 0.0080888 -0.51181203
0.31949428 -0.06770001 -0.26127645 -0.37034944 0.036618937 0.1086886 0.00062569237 -0.3365495
0.06356931 0.5366889 -0.41710952 -0.6612957 -0.3342821 0.29916054 0.52452654 -0.5655944
0.17489223 0.020974575 -0.018472742 0.380118 0.40459704 0.46655372 0.8265002 0.20887358
0.30568495 -0.08077498 -0.20154075 0.37293836 -0.107299395 -0.05022225 -0.10804479 0.022996264
0.37324068 0.21454023 0.29528552 -0.11074453 0.57647765 -0.47661266 -0.13508785 0.63651377
-0.62904245 0.020193156 0.14400358 -0.4813379 -0.53269625 -0.26438615 -0.015499556 -0.6816872
0.163307 -0.2839343 -0.2126373 0.0584276 -0.08471585 0.119100794 -0.14714064 -0.21510193
0.12287296 -0.33162433 0.37429747 -0.026468072 -0.04650978 0.09031802 -0.022574743 -0.18368225
-0.66820145 0.67021185 -0.49375957 -0.019327752 -0.31740952 -0.49573213 -0.103030704 0.0075519755
-0.10090958 0.15294605 0.09687894 0.09487379 0.25458172 0.10099767 0.04483199 0.052885912

network_body._body_endoder.seq_layers.0.bias f4 [64]
00000000: 89c8 6d3e ab9a 34bd fc1c 0c3e 6d8c 24be
00000010: 43f6 9a3c 70e5 883e aed5 913d c9e1 8b3d
00000020: 0984 a73d 0f7c 1abd 78b6 4e3e 6deb 0dbd
00000030: 4d50 c1bd 7dca de3d bf22 a53e 98e0 ec3d
00000040: 1cb5 b2ba 6714 dd3d 54a8 3c3d 6b32 1d3d
00000050: bdef 8a3d 2c7b 883e 6783 0f3d 9aaa 22be
00000060: 30d9 543e ac26 2a3e 9d24 283d 8f2c 613d
00000070: 7c8a c3bc c57b 513d 5d4e 03be 8280 6d3d
00000080: 1aa2 9a3e 0d8b d6bc 8ed3 7d3d 82c4 843b
00000090: 13e8 483d f551 83bd 2aea 333e eee8 a53d
000000a0: 710d 323d ed17 e93d 33de 773e c9b7 973b
000000b0: 1d8d efbd a5d5 133c ea44 53bc ff21 543b
000000c0: f9df 88bd ed2f c6bc db28 8c3d 04a1 d53d
000000d0: b31f 193e 2d09 003e db77 4b3b a8d0 8f3d
000000e0: 72f2 883e 5ce5 9dbd 5cae 473e 1bf4 903d
000000f0: 80bc 2c3e 76a0 f93d 3e13 3c3d df52 c73d
0.2322103 -0.044092815 0.13682932 -0.16069193 0.018916255 0.26737547 0.07120834 0.068301745
0.081794806 -0.037715968 0.20186794 -0.034648348 -0.09439144 0.10878465 0.32253072 0.11566275
-0.0013634297 0.10794907 0.046058968 0.03837816 0.06784008 0.26656473 0.035037424 -0.15885392
0.20785975 0.16616315 0.041050542 0.054974135 -0.023869745 0.051143426 -0.12822862 0.057983883
0.302018 -0.026189351 0.061969332 0.004051746 0.04904945 -0.064121164 0.17569795 0.081010684
0.04346985 0.113815166 0.24205856 0.004630063 -0.11696837 0.009023105 -0.012894848 0.0032368896
-0.066833444 -0.024192775 0.0684373 0.10431102 0.14953499 0.125035 0.0031046781 0.0702222
0.2674747 -0.077097625 0.19500107 0.070778094 0.16868782 0.121888086 0.04591679 0.09732603

network_body._body_endoder.seq_layers.2.weight f4 [64, 64]
00000000: 6710 c1be 2945 1a3e 18c9 f7bd 1329 983d
00000010: 0c2e 3abe ea32 e3bc 2c73 03bd fa67 8e3e
00000020: 6b0f d93d 28f9 d83e 17c6 6d3d 00df 90bc
00000030: e03d ee3d a6bc 1d37 a60b 2fbe feb7 54be
00000040: d1ec 833d a381 413d 37ae 243e d494 683e
00000050: 04ea 57be 4c59 46be e340 e8bd 63a2 e73e
00000060: dee9 333d 8e79 81be bfd1 f13d 5dc9 423e
00000070: e8ea 5b3e 0409 a1bd 5cac 1bbe 9511 c0bc
00000080: b863 99be 2a2f ed3c bff2 823d eaa0 723d
00000090: 3596 3f3e 98d9 433d c3bb 13bc 802c 8ebd
000000a0: 5266 1ebe ea78 203e a681 0b3e 59e2 993e
000000b0: 14dd 383e 1cad 523e ecea 7bbd 9510 ed3d
000000c0: 5ddc 00be 4d33 5abd d4ad f63d ac2e c2bd
000000d0: af16 ca3d 0288 c13d 836a 9cbd 384b 34bc
000000e0: f37c 9fbe 32ff ba3d 8510 99be 7c89 b3bb
000000f0: be7b a2bd c09d 64be 3965 30bc f23d 08bd
00000100: c38d febe ba3a 6f3d 1b85 d5bd 98c2 a23d
00000110: 8dce 303e fe7a 88be 24b9 5e3e de41 07bc
00000120: 7100 1c3e 2fdc 813d 15b9 8fbe 87fb 3b3e
00000130: 6b78 823e 54f2 9c3d f7b2 94bd 398a debe
00000140: 617d 6f3d b58f e93d b7a2 223e d96b fa3b
00000150: 2012 973d 3cdd c8bd 1dfa 8dbd a840 963e
00000160: d386 78be 2956 10be e11f 723d b538 8a3e
00000170: eceb 233c ddb0 bc3d 7f50 44bc 6786 8ebd
00000180: 98a0 afbd 42a2 0d3e 7ff9 b4be 4112 cf3d
00000190: 2626 edbd 6152 ef3d 7f08 00be 235b 8ebd
000001a0: 98cb 4ebe efb8 fabd 5f8f 33bd d967 853a
000001b0: 0cd8 a03e 79d4 153e 3ac3 1d3e bd46 babd
000001c0: baec 40bd 3a96 e43d 3a08 0e3e 8510 953e
000001d0: 86d5 2bbb 4ac5 8fbe 494f 5c3d 8228 d9be
000001e0: 1a72 57be 8698 26be dc2a 04bd 0657 5ebc
000001f0: 794f 80bc f8fc 32be b346 68bd de5f 0fbd
00000200: 998b 9c3c aa99 723e 10e2 393e a172 fcbd
00000210: 8e0f 2d3e ee7c bcbd f6d2 53bb 5389 cc3c
00000220: 8d65 23bd 829e 433d 3f35 77be 4e07 ed3d
00000230: 6cc9 92bd 27c6 4f3d a4a8 dd3d a495 83bd
00000240: 3696 943d 57d2 bebc 88cf 6bbe 7ef5 303e
00000250: 3436 9cbe 4dbb 083e bc98 a23d 89a6 dfbd
00000260: 938a 1d3e 2773 363e 112a c73d 2c2c cb3d
00000270: 1695 8fbd 8820 8dbe b582 fc3b fef2 48be
00000280: 832d f03d 02f1 d2bc 05ea acbe e1ae e33d
00000290: 7bf3 84be b99b 69bd aae6 333e ff1a 26bd
000002a0: 6ebf 1abe 27f0 0c3e fc87 d83d f733 c2bc
000002b0: 184d b1be 8f67 a93c 1270 c5bd 70a8 763e
000002c0: 968b 83be dc36 0a3d ae1c da3d 47e4 86be
000002d0: ad46 83be caf9 7ebd 07d4 7fbd 2caa 4bbe
000002e0: 86ca 30bc f219 183e 83b3 70bd d44f 323e
000002f0: 581c 343e 7b38 35be 8e4b 65bb faff 08be
00000300: 0869 71be f1ac f73c 417e 93be 2de6 803e
00000310: 3fbf 42be 144d 893e 91b9 4dbd f56b 8c3d
00000320: e0fc 2c3c 9840 933c ed8c 0e3c 2eaf 02be
00000330: 9caf 21bb 9129 41be f82d 9f3e 91da 423e
00000340: 5c90 d03d fbeb 9c3c 8b13 a1bd 29f0 513e
00000350: 5ba2 7fbe cc92 55be e31b 583d e5c6 803d
00000360: c167 9ebd d0f4 96be 4930 8abe 5c6f 3cbe
00000370: 1747 803b d076 ef3d b8c2 9abc 6372 7bbe
00000380: 2287 a4be 5771 09be 20cb 5e3e ba78 31be
00000390: ef5d 0d3e 8369 97be 1556 2bbe d6f9 80bd
000003a0: 5cb7 c8be 69fe 6e3c a9b8 ebbc 789e 48be
000003b0: a520 013e 2142 963e 1449 903d 3c89 753d
000003c0: 91e0 0f3c 670b 31be ccdd 2e3e 61a3 5a3e
000003d0: 1a52 bfba ffd8 b03d 1c88 843c cfd9 ed3d
000003e0: 952e ba3d 92ce 21be 2759 0d3d a09d f6bd
000003f0: 6a1b 053d 89ab 943d 1300 b13d 100c ab3d
-0.37707826 0.15065445 -0.120989025 0.07429709 -0.18181628 -0.027734239 -0.03209226 0.27813703
0.10598644 0.4237759 0.05805024 -0.01768446 0.116328955 9.401852e-06 -0.17094287 -0.20773312
0.064416535 0.04724277 0.16082083 0.22713023 -0.21085364 -0.19370002 -0.11340501 0.4524108
0.043924205 -0.2528805 0.11807584 0.19022126 0.21476328 -0.07863048 -0.15202469 -0.023445884
-0.29958892 0.028953154 0.063939564 0.05923549 0.18709643 0.047814935 -0.009016934 -0.069420815
-0.1546872 0.15671125 0.13623676 0.30055502 0.18053085 0.20573848 -0.061503336 0.115754284
-0.12584062 -0.05327158 0.12044874 -0.09481558 0.09867608 0.094497696 -0.07637503 -0.011004262
-0.31150016 0.09130706 -0.29895416 -0.005479036 -0.07933758 -0.22325802 -0.010766321 -0.0332622
-0.4971753 0.058405615 -0.104257785 0.07947272 0.17266293 -0.26656336 0.21750313 -0.00825545
0.15234543 0.06340825 -0.28070894 0.18357669 0.25482497 0.07663408 -0.07260697 -0.4346483
0.05846918 0.11404363 0.15882383 0.007642251 0.07376504 -0.09807822 -0.06932471 0.29346204
-0.24270181 -0.14095367 0.059112433 0.2699639 0.010004979 0.092134215 -0.011982082 -0.06959229
-0.08575553 0.13831428 -0.353466 0.101109035 -0.11579542 0.116856344 -0.12503241 -0.06950977
-0.20194852 -0.122423045 -0.0438379 0.0010178044 0.3141483 0.14631833 0.15406504 -0.090955235
-0.04710076 0.11161466 0.13870326 0.29114166 -0.00262198 -0.28080207 0.05378655 -0.42413718
-0.2103962 -0.1626912 -0.032267436 -0.013570553 -0.015662896 -0.17479312 -0.05670805 -0.035003535
0.019109534 0.2369143 0.18152642 -0.12326551 0.16900465 -0.09203516 -0.0032321787 0.024967825
-0.03989177 0.047758587 -0.24141406 0.11573659 -0.071673244 0.050726082 0.10823181 -0.06425026
0.07255213 -0.023293657 -0.23028386 0.17281148 -0.30510104 0.133527 0.07939288 -0.10920436
0.15384893 0.17817365 0.097248204 0.099205345 -0.07010858 -0.27563882 0.007706011 -0.19623944
0.11727431 -0.025749687 -0.33772293 0.1111734 -0.2596701 -0.057033274 0.1756846 -0.04055309
-0.15112087 0.13763486 0.10572812 -0.02370642 -0.3462913 0.020679263 -0.09640516 0.24087691
-0.25692433 0.033743724 0.106500015 -0.26346037 -0.2563986 -0.062249936 -0.062458064 -0.19889134
-0.010790473 0.14853647 -0.058764946 0.17413265 0.17588937 -0.17697327 -0.003498766 -0.13378897
-0.23575222 0.030233832 -0.28807262 0.2517561 -0.19018267 0.26816618 -0.050225798 0.06856529
0.010558337 0.017975137 0.0087005915 -0.12762138 -0.0024671322 -0.18863513 0.3108976 0.19028689
0.10183784 0.019155493 -0.07865056 0.2050177 -0.24964277 -0.2085678 0.05276097 0.06287936
-0.07734633 -0.29483652 -0.26989964 -0.18401855 0.0039147246 0.116925836 -0.018891677 -0.24555354
-0.32134348 -0.13422142 0.21757174 -0.1733121 0.13805364 -0.29572687 -0.16732056 -0.062976524
-0.39202392 0.014587023 -0.028774576 -0.19591701 0.12610109 0.29347327 0.070451885 0.05994533
0.008781568 -0.17289506 0.17076796 0.21351387 -0.0014596612 0.08635139 0.016178183 0.11613809
0.09090916 -0.15801457 0.03450885 -0.12041783 0.032496847 0.0725928 0.08642592 0.0835191

network_body._body_endoder.seq_layers.2.bias f4 [64]
00000000: 70eb e1bb 3beb d93c 2acb 4cbd c74e 3c3d
00000010: 1e59 433d 444a 21bd 24d7 d73c fad4 003e
00000020: 4214 393e 3d20 683d 7a94 bb3c 7f3a f33d
00000030: 6266 443d c081 0a3d c04d 583d c062 c83c
00000040: da35 e1bc b83d ba3d 8034 d13b 4a83 003e
00000050: ec66 9cbb 0405 b9bc 0e4c 1f3d 2937 5bbc
00000060: 868b 3a3e eb9f 483b 2f8f 9e3d c0ff e13d
00000070: 7c7e 0b3d 32fb b83d 5f7f ba3b 53c0 3fbd
00000080: 50fc babc f976 1dbd a798 eabc fcd4 43bc
00000090: 40c6 813d e7f4 91bc 7373 acbd b8f5 82bc
000000a0: 66e3 c53c dda5 83bd d819 f43d 915f 813d
000000b0: 7e7e 23bc 3b47 e6bc 8fb2 143e 61de 823d
000000c0: 87e9 2a3d 6f46 e4bb f181 a43b 7981 823d
000000d0: e62b 123d 1ee3 87bc eb3e a13c a68c d83b
000000e0: ae2f f33d 47bc 893d a80f d3bc 613c 123e
000000f0: 6c2a 213e eea6 193d 533c 5d3d 2da7 7c3d
-0.0068945214 0.026601424 -0.04999844 0.045973565 0.04769241 -0.039377466 0.026347704 0.12581244
0.18074134 0.05667137 0.022897948 0.118763916 0.047949202 0.033815145 0.052808523 0.02446115
-0.027491499 0.09093803 0.0063844323 0.12550083 -0.0047730114 -0.0225854 0.03889089 -0.01337985
0.18217286 0.0030612897 0.07742154 0.110351086 0.03405617 0.09032287 0.0056914533 -0.046814274
-0.02282539 -0.03844354 -0.028637243 -0.011952635 0.06336641 -0.017816974 -0.08420458 -0.015986308
0.024156284 -0.0642812 0.11918992 0.06317056 -0.009978889 -0.028110137 0.1452124 0.06390072
0.041726615 -0.006966404 0.005020373 0.06372351 0.035686396 -0.01658779 0.019683322 0.0066085635
0.118743286 0.06725364 -0.025764301 0.14280845 0.15738839 0.037512712 0.054012608 0.06168287

network_body._body_endoder.seq_layers.4.weight f4 [64, 64]
00000000: d9dd c73d c07f a9be 8386 b3bd d895 b5bd
00000010: 3f8b 4dbe 4027 f5bd 4f82 f6bd 5b32 1f3d
00000020: 7acb b33d fe4a 143e 679a cebe bffd 8e3e
00000030: 33e6 a13e 612b adbd cc84 f63e de6e c23b
00000040: acc1 2f3e bc5c 0bbc fc4a 27bd a42d 40be
00000050: 1c76 a3be 42e4 b1b9 7fb4 aa3e e4b1 43be
00000060: 42ce a33d 6561 8f3d f92c f0bd 88fb 0d3e
00000070: 94a7 9cbd 29f1 24be 5a7f 9bbd cde7 8d3d
00000080: 4e1a a2be 41d4 40be ce6e 01bd d1fa d5be
00000090: c438 6d3e 944b c8bd 2e7e 3cbd 82a3 673e
000000a0: 5b7c 40be 0e1d 293e 62fe 453e 9982 65bd
000000b0: 842b b13d 0fe3 3dbd 76fa dfbd 1dcf dbbc
000000c0: d4d5 f63d 810b 943d 3a77 77bd 5f54 0c3e
000000d0: 1499 d1be 8300 1d3e 4a13 a6bc 42b1 29bd
000000e0: 142c 12be 9551 6f3e 0faa 2a3d c99e 9ebd
000000f0: 6632 423e d19f fdbe 00cc cf3c 4f45 063c
00000100: c81b b13c 3431 c8be a072 00be b5bd 5cbd
00000110: dcfb e53d 43fa 1e3d 4301 5f3e 1281 aabc
00000120: 4930 acbe 0a9b 063e 06a8 84be 8906 3c3d
00000130: e1b1 9dbd 6ab9 eebd 1370 c13c b9fa d33c
00000140: 47f0 c43d 9123 15be f6dd 59bd 1190 a7be
00000150: d183 8f3d ea7f e73d 70a3 b9bd 6871 58bd
00000160: 9464 963d c2d7 a33d a79c d83d f1c8 efbd
00000170: 0cdd 9d3e c2bc 843e d6bc c23d 8fb1 f23c
00000180: 6bac ebbd 2cf0 4c3e 4cbf 33be 8e4d 93be
00000190: 7836 1bbe b6b2 fa3d 9c88 203d cc87 f9bc
000001a0: b194 0c3e 8414 d23d 8b83 9dbd 2d60 c9bc
000001b0: 20ec cbbd 653b b1bd 3e91 5fbe bfb1 2cbe
000001c0: beb5 ba3e 4967 6f3e 8027 ac3d 17ef 15bd
000001d0: 156d 41be 386e be3d 4232 69bd e5a6 463e
000001e0: 97a4 93be 82e3 303d 1b17 86bd 800f 29be
000001f0: ec5f 9cbd 5777 2fbe df53 e2bd 2e22 df3d
00000200: dc71 5e3d 8ec6 f03d 9a62 a3bd 7114 25be
00000210: 3fc6 26be 94f6 183e b008 c3bd 88d9 2ebe
00000220: 910c aebc 22c3 f9be b514 683d 317b 22be
00000230: 9cc3 55be 875c 933e 02ca 283d 5728 3c3e
00000240: 3cb3 3fbe 7282 aa3c fdce a9be 8baa e4bd
00000250: 8145 51bd 9828 63bb 8559 edbd 602c 1ebc
00000260: 98f7 cc3c 537e 18bd 20a1 7cbd 651c 4d3d
00000270: 6a6d 84bd 91f0 a1be 4de9 aabd 667b d2bd
00000280: aa14 133e 14d8 db3c cc3e 00be a561 fe3d
00000290: d06f f7bd 600e eb38 f1a2 acbd f055 ad3e
000002a0: f036 95be a295 00be 7d1f 31be 9e0b 823b
000002b0: 3371 023d cd07 b33e 4147 3cbe 3201 cd3d
000002c0: 7c1d 3e3c 651f 113d 7e70 073e 7bc4 3a3c
000002d0: 2934 a43e 8b5a 97bc 03ba fe3c 8378 9ebd
000002e0: 5f9f 493e 4e9d c0bc ae77 5d3d 24bc 64be
000002f0: b5f4 2dbe 1735 af3c a64f 81be a911 a93d
00000300: acec 7c3e 581a febd add9 8cbe e550 023d
00000310: f81e fdbe b0c7 62bd 2561 b3bd fe9d 5fbd
00000320: 5a04 9e3c a49d 953e 4143 17be 2e73 fa3d
00000330: e64d 9f3d 7d9a ebbe 91be b03d 314f b53d
00000340: 3d17 e23c bc8b 98be bdd5 893d 9adb 203e
00000350: e336 16be 9968 bd3d 7a3b a6be 0881 aa3d
00000360: 52cf 7a3d 1aee 353d 2eb0 e63d 202b ad3d
00000370: 01da 523e 5fa5 b5bd 9199 a53d 0510 1dbe
00000380: 6110 34be 6e57 8e3d e917 b1bc 4efd 14be
00000390: c1fd 0ebe 42b5 1abe 5d98 1c3d 9987 a03e
000003a0: d426 1bbe 1561 823e 8f40 a93d a2ab cc3b
000003b0: 6b64 ba3c 6bbe b4bd 7192 75be ab35 86ba
000003c0: 979c 543e f859 11be 06d8 583b 2eaf 86bd
000003d0: cbba debd 312f 5b3d 30e8 4ebe cc8b 993c
000003e0: 8ae2 04be 9e75 553e 9896 bcbc f5f9 86bd
000003f0: 0356 95bc 9973 62be 21ba 153e 18e1 4e3e
0.09759111 -0.33105278 -0.087658904 -0.08866471 -0.2007265 -0.11970377 -0.12036573 0.038866382
0.087790444 0.14481732 -0.40352175 0.27927968 0.3162094 -0.084555395 0.4814819 0.0059336266
0.17163724 -0.008505996 -0.040842995 -0.1876741 -0.31926048 -0.00033930136 0.33340833 -0.19110829
0.07998325 0.070009984 -0.11727328 0.13865483 -0.076491505 -0.1610762 -0.0759265 0.06928978
-0.31660694 -0.18830968 -0.031599812 -0.4179292 0.23166186 -0.097800404 -0.04601877 0.22620967
-0.18797438 0.1651499 0.1933532 -0.05603275 0.08650878 -0.046359118 -0.109364435 -0.026832158
0.12052503 0.07228757 -0.060416438 0.1370406 -0.40937102 0.15332226 -0.02027287 -0.04142881
-0.14274627 0.23370965 0.041666087 -0.077451296 0.18964538 -0.49535993 0.02536583 0.008195235
0.021619692 -0.3910004 -0.12543726 -0.053891856 0.11229679 0.038812887 0.21777825 -0.020813499
-0.3363059 0.1314508 -0.25909442 0.04590467 -0.07699943 -0.11656459 0.023613011 0.02587639
0.09616142 -0.14564349 -0.053190194 -0.327271 0.07007564 0.113036945 -0.09064376 -0.052842528
0.073434025 0.08000137 0.10576754 -0.117082484 0.30832708 0.2592526 0.09508674 0.029625682
-0.115074955 0.20013493 -0.17553443 -0.28770107 -0.15157497 0.12241118 0.03919278 -0.03046026
0.13728596 0.10257819 -0.076911055 -0.024581993 -0.09957147 -0.08653907 -0.21832749 -0.1686468
0.36466783 0.23379244 0.084059715 -0.036604967 -0.18889268 0.09298366 -0.056932695 0.19399603
-0.2883651 0.04318572 -0.06547376 -0.16509819 -0.07635483 -0.17135368 -0.110511534 0.10895191
0.054307804 0.11756621 -0.07977791 -0.16121079 -0.16286562 0.14937812 -0.095231414 -0.17075169
-0.021246227 -0.48781687 0.056660373 -0.15867306 -0.208754 0.2878153 0.041208275 0.18374763
-0.18720716 0.020814154 -0.33165732 -0.11165341 -0.051091675 -0.0034661647 -0.1158934 -0.0096541345
0.025020406 -0.037229847 -0.0616771 0.050075907 -0.064661816 -0.3162885 -0.0834528 -0.10277443
0.14363351 0.026836433 -0.12523955 0.12420968 -0.120818734 0.00011208351 -0.08429516 0.33854628
-0.29143476 -0.1255708 -0.17297168 0.00396867 0.031846236 0.3496689 -0.18386556 0.100099936
0.011603709 0.03543033 0.13226506 0.011399384 0.32071045 -0.018475791 0.031094557 -0.077378295
0.19689701 -0.023512509 0.054069214 -0.22337395 -0.1698788 0.02138762 -0.2525608 0.082553215
0.24699658 -0.124073684 -0.27509823 0.03181543 -0.4943769 -0.055366218 -0.08758763 -0.054594032
0.019289184 0.29221833 -0.14771749 0.12229 0.0777853 -0.46016303 0.08630098 0.08852995
0.027598972 -0.2979411 0.067302205 0.15708771 -0.14669375 0.09248466 -0.32467252 0.08325392
0.061232872 0.044416524 0.11264072 0.08455491 0.20590974 -0.08869433 0.08085931 -0.15338142
-0.17584373 0.0695027 -0.021617847 -0.14549753 -0.13963987 -0.15108207 0.038231242 0.31353453
-0.1515153 0.25464693 0.08264267 0.006246046 0.022752961 -0.08825382 -0.23981644 -0.0010239383
0.2076286 -0.14194477 0.0033087744 -0.065763816 -0.10875472 0.053511802 -0.2020576 0.018743418
-0.12977043 0.20845649 -0.023021027 -0.06590644 -0.01822949 -0.2211441 0.14621784 0.20203054

network_body._body_endoder.seq_layers.4.bias f4 [64]
00000000: 69b8 673d a341 2fbb f411 5c3c 646c c0bb
00000010: 0115 773d 9021 31bd ade8 0f3d 2684 85bc
00000020: dbef 60bb b81f c8bc 61d8 6dbd b32e 023e
00000030: 6e2d 9b3c 3dd4 94bb c67d 3d3e 138c 2dbc
00000040: f137 8e3c cb8e 353c 3cc3 cb3d c9fd a03c
00000050: 7c33 a7bd d3c7 6ebd 2b40 243d ac72 c13c
00000060: b441 83bd a1be bdbc 3651 773b 6ec5 103d
00000070: 4a1b c13c efde 503d 52f2 8c3c eac5 5bbb
00000080: b143 5fbd ca91 33bb 9410 773e 5beb 1e3c
00000090: 6298 8a3d 52c2 bcbc ae84 a63d a1dd 223c
000000a0: 163d 633d 5c6a 9abb d56b 643c 3b7a c3bc
000000b0: 764d eabb 086b e2bb cdc9 1a3d 0a21 aabc
000000c0: 2e1e a23c f45f aa3c 7e76 7e3c 2263 2a3c
000000d0: 0d68 933d 4506 60bd 2d22 583d a7ef 553d
000000e0: 67df ce3d 9121 df3c 74cc 133d 1e10 7b3d
000000f0: 8dba 9dbc 6040 f43c 70b3 f2bc 067d 85bd
0.05657235 -0.0026742003 0.013432015 -0.005872296 0.060322765 -0.0432449 0.035134006 -0.016298365
-0.0034322653 -0.024429187 -0.058067683 0.12713127 0.018942561 -0.0045419023 0.1850501 -0.010592478
0.01736066 0.011081408 0.099493474 0.019652264 -0.08164117 -0.058296036 0.040100258 0.02361425
-0.06409016 -0.023162188 0.0037737614 0.035344534 0.023572583 0.050993856 0.017205391 -0.0033534714
-0.054507915 -0.002740013 0.24127418 0.009699668 0.06767346 -0.023041878 0.081307754 0.009940536
0.055478178 -0.004712386 0.013941725 -0.023861995 -0.0071503473 -0.006909732 0.03779011 -0.020767707
0.019789781 0.020797707 0.01553118 0.010399612 0.071975805 -0.05469348 0.052766968 0.052230503
0.10101204 0.027237685 0.036083654 0.061294667 -0.019253993 0.029815853 -0.029626578 -0.06517987

network_body._body_endoder.seq_layers.6.weight f4 [64, 64]
00000000: 5eb6 90be 8622 003e 5c11 973c b0e1 733c
00000010: db35 0a3d ffcc dfbd 017c eabd 397a 17be
00000020: bf13 883d 7033 69bd 7c9c 00be dfe8 0ebe
00000030: 231d e83d 5186 1fbe 78ed 59be c1d3 663e
00000040: 57c6 0c3c ac18 15be 864a 0dbd 39db c63d
00000050: b0bf 09be bf52 063e aa98 db3c ec2a c13d
00000060: 4e6c 8abc 8f79 7bbd 847a 06bd d976 fdbd
00000070: e3b4 ad3e 95fb 6dbd 400a 95bc f896 9bbd
00000080: d7ff aa3c a9b3 0abe d624 09be ebe5 973e
00000090: 6065 0d3e dd26 093e 80af 1c3d dd04 0d3d
000000a0: 7cc9 493e 1ec6 7e3e e4c7 163d 21db 8ebd
000000b0: e7df 503d 54dc 6cbe ba51 373e da0f d73b
000000c0: 4db2 efbd 0980 98bd 6b9c c6bb f37a 2b3e
000000d0: 9e86 c7be 3a5d e63d 38ca 19bd 83dd 583c
000000e0: b48f 803c 6d22 983d 45a3 85ba 2089 82be
000000f0: 40c8 773d abf3 df3d 705a 663d a9a8 ebbc
00000100: d38b b33d 4dae e33c f905 523e 8f63 5dbe
00000110: 1e78 62bc 8b9c 22be 6ab8 81be b862 3b3e
00000120: e40e 6bbe 15b5 ec3d 7ddd 063e c91d c2bd
00000130: 6606 b0bc 5f86 2c3e fb75 23be 6003 b9be
00000140: 23bf f8bb 2071 8abe 0081 cdbd 2907 3abe
00000150: dffd 453c 0d46 40be be9a 163e b42d 64be
00000160: 1404 d43b 78b5 a03e 1ca8 683d 409c da3d
00000170: 4dcf f2bd 1640 ed3d 7e4c a4bd 1e07 8cba
00000180: f851 0dbf 889c 3b3e ed50 7cbc 0ec7 58be
00000190: 4996 11be f8d7 fbbd 4f36 103e 74ce 98be
000001a0: 834a 6fbe 59d8 e7bd 3050 423e a71b 25bc
000001b0: 4f94 06be 1ab9 6abe c14f 1a3e e59d debd
000001c0: 7621 38bc c0fe e7bd ee05 bd3d fb45 883e
000001d0: 48f2 0e3e 6a05 afbd 1b19 31be 807c 963d
000001e0: 08cd 8cbe 7a95 3fbe 4320 90bc 1c35 3ebd
000001f0: d518 3dbe 8bc7 16bd d70e 333e d228 0e3e
00000200: 0cdd 4fbd c2b2 243e da1f c3bd 81fa 08be
00000210: d2c6 ccbd 66d5 733e ade6 c0bd 7bc8 b23d
00000220: 6f10 0f3e 3848 1bbe ca81 2fbe 078e 193c
00000230: 2ba7 d53d de99 ca3d f87b 3d3e 5b49 74bd
00000240: 1210 84be 2628 223d 2abc 76be 75ec 1dbe
00000250: 3eaf bfbc c314 283e f061 59be dea7 a3bd
00000260: df49 863e 0f83 b8be fb66 2a3e a904 04be
00000270: a9ed 9f3e cfd1 9a3d 35bd 093d 2230 bbbd
00000280: c2cc 23be 7e44 bdbd 8756 0ebe 00bd 0cbe
00000290: 80f2 4cbd 076e 8f3e e493 94be b44c 353c
000002a0: e496 8bbc 5c60 aabd 8985 963e 3cf4 2a3e
000002b0: b1bd c33d 0d17 86be 290a 81bd b335 813c
000002c0: e6f5 9e3e 7dfa 92bc 24b3 d83d 2127 0bbd
000002d0: 90c3 98bd 4035 7f3d c008 38be f551 80bd
000002e0: fdd9 603e 9017 0bbc ba04 08be f432 973e
000002f0: 264c f8bd 434c 873e c5fe 1fbe 448d c8bd
00000300: 8480 14be 9fc4 f8bc ed45 07be 2fab 26be
00000310: 6f1f 933e 79d4 2cbd 9b4a e3bd 0f92 35bd
00000320: 45a7 493e 6cac 2d3d c00d d1bd b6d5 03be
00000330: b0d5 973c 026e 84bc effa f1bc ef2f a6bd
00000340: 8d1f b6be 8308 f83d 6b8a bbbd 0532 c03c
00000350: 3985 80be 7665 b6bd 9b20 89bd 8f4d 0ebc
00000360: dcd7 843e 6b19 383d cb24 d93c 29b5 1a3e
00000370: 1302 ddbe 9b45 1c3e f44d 913e a577 043d
00000380: 3a24 aabc 62f6 3c3c 1fe2 42be 3f3a aabd
00000390: 1ca0 833a 44da f138 a5e5 393d 0642 8abd
000003a0: 4d32 9d3c d123 2fbe 6d47 fe3d f2ff 12bd
000003b0: e9f0 d03d 9cb4 d43d 0263 533d 27de 043e
000003c0: 0eeb 1a3e 06cc b33d 3b69 5c3e de4a 5b3d
000003d0: be6d f8bd 515e d8bb 884d 833d 41c3 b7bd
000003e0: 8e6f 5ebd eeb9 fabd 7c25 033e 9ab2 3bbd
000003f0: dc5d ae3d 4061 923e 83d1 66be f7e0 9ebd
-0.28264135 0.1251317 0.018440895 0.014885351 0.033742767 -0.10927772 -0.11449433 -0.14792718
0.06644391 -0.05693382 -0.12559694 -0.13956021 0.113336824 -0.15578581 -0.21281993 0.22541715
0.00859221 -0.14560193 -0.0344949 0.09709782 -0.13452029 0.13117503 0.026806194 0.09432015
-0.016897347 -0.061395224 -0.032831684 -0.12376184 0.33927068 -0.058101255 -0.018193364 -0.075971544
0.020873947 -0.13545097 -0.13392958 0.296676 0.13808203 0.13393731 0.038253307 0.034428466
0.19705766 0.24880263 0.036811724 -0.06975389 0.05099478 -0.23130924 0.1790227 0.006563169
-0.1170393 -0.07446296 -0.006061127 0.1674612 -0.38969892 0.1124825 -0.037546366 0.013236406
0.015693523 0.07428441 -0.0010195753 -0.25495243 0.060493708 0.10935148 0.05623859 -0.028766947
0.08766904 0.027793074 0.20510091 -0.2162001 -0.0138225835 -0.15880029 -0.2533601 0.18299377
-0.22954899 0.11557976 0.13170429 -0.09478337 -0.021487426 0.16848134 -0.15962975 -0.36135387
-0.0075911446 -0.27039433 -0.100343704 -0.18166794 0.012084453 -0.18776722 0.14707467 -0.2228306
0.0064702127 0.3138845 0.056800947 0.106743336 -0.11855946 0.11584489 -0.08022402 -0.0010683273
-0.552032 0.1832143 -0.015400154 -0.21169683 -0.14217485 -0.12297052 0.14083217 -0.2984501
-0.23368268 -0.11320562 0.18975902 -0.010077394 -0.13142513 -0.22922173 0.15069486 -0.1086996
-0.011238446 -0.113278866 0.092296466 0.2661589 0.1395961 -0.085459545 -0.17294733 0.07347965
-0.27500176 -0.18709365 -0.017593509 -0.046437368 -0.18466504 -0.036811393 0.1748613 0.13882759
-0.050747916 0.16083816 -0.095275596 -0.1337681 -0.099988595 0.23811874 -0.09418998 0.08729645
0.13971113 -0.15164268 -0.17139354 0.009372241 0.104322754 0.09892629 0.18504322 -0.05964027
-0.2579351 0.03958907 -0.24095216 -0.15422232 -0.023398992 0.1641417 -0.21228766 -0.079910025
0.26228234 -0.3603749 0.16640846 -0.12892403 0.31236008 0.07559549 0.033627708 -0.0914004
-0.15996078 -0.092415795 -0.13900195 -0.13743973 -0.050035954 0.28013632 -0.29019082 0.011065651
-0.017039724 -0.0831916 0.29398754 0.1669473 0.09557665 -0.2618946 -0.06300766 0.015772676
0.3104698 -0.017941708 0.10581043 -0.033972863 -0.074591756 0.062306643 -0.17972088 -0.06265632
0.21958156 -0.008489504 -0.13283053 0.29531062 -0.12123899 0.2642537 -0.1562453 -0.09792569
-0.1450215 -0.030367194 -0.13210268 -0.16276239 0.2873492 -0.042194817 -0.11098214 -0.044328745
0.19692715 0.042400762 -0.10207701 -0.12874493 0.018534511 -0.016165737 -0.0295386 -0.08114611
-0.35570946 0.121109985 -0.091572605 0.023461351 -0.2510164 -0.08906071 -0.06695672 -0.008685484
0.25945938 0.044946115 0.026506802 0.1510817 -0.43165645 0.15260927 0.28379786 0.032340664
-0.020769227 0.011533352 -0.19031571 -0.08311891 0.0010042223 0.00011532431 0.04538502 -0.06750874
0.019189024 -0.17103507 0.12415967 -0.03588862 0.102022 0.10386011 0.051608093 0.1297537
0.15128729 0.08779149 0.21524517 0.053538196 -0.12130307 -0.0066030403 0.06411272 -0.089727886
-0.054305606 -0.122424945 0.12807268 -0.045824625 0.08513996 0.2858982 -0.2254086 -0.077577524

network_body._body_endoder.seq_layers.6.bias f4 [64]
00000000: 05c4 63bd e76c f0bc c1cf 963c 19ec 0bbd
00000010: 392d f93c 5c5b 73bc d8a3 303c c6a4 c4bd
00000020: a93f 623c bafa 5a3d e5b7 19bc d9ba 1fbd
00000030: e6fd febc 29eb 91bd 51c9 ec3c a88f 00bd
00000040: a3b9 4b3b edd1 32bd 7645 6f3a 96e9 58bc
00000050: ae3c 7abd 7849 0d3d b6f6 2cbd c96f 82bd
00000060: 554a 7abd 7721 d33b 07b6 58bd 5791 bc3c
00000070: 0197 3abc f323 123c f61e a73d 610f 2bbd
00000080: 3046 2fbd bac1 8b3d cd7f 1ebd c0c7 223d
00000090: 942f 26bd c85d 863d bfed 66bd 8f7e d33c
000000a0: 887f 1abc c691 79bd 35ef 643c 5778 90bd
000000b0: 2fea c1bc 58c0 d93c 3047 7bbd ff96 50bd
000000c0: 14ff 42bd 559d 9fbc af9e 0339 7713 1e3d
000000d0: 578c fc3b abc7 70ba 5199 a4bd 32cf 5abd
000000e0: 8280 80bd bb2f c4bd f424 bc3c 5b08 9dbd
000000f0: 589d 28bd 9bc0 56bc 38d3 c3bc 40ea 083c
-0.05560686 -0.029348804 0.018409612 -0.034160707 0.030417072 -0.014853325 0.010781251 -0.096017405
0.013809123 0.053461768 -0.009382223 -0.03899655 -0.031126928 -0.07124931 0.028904589 -0.031387
0.003108599 -0.043657232 0.0009127477 -0.013239285 -0.061093025 0.034493893 -0.04222747 -0.063689776
-0.061106045 0.0064431983 -0.05290797 0.023018522 -0.011388541 0.008919704 0.08160202 -0.041762713
-0.042791545 0.0682406 -0.0386961 0.039741278 -0.040572718 0.06560856 -0.056379076 0.025817184
-0.00942982 -0.060930036 0.013973047 -0.07054203 -0.023671238 0.026580974 -0.061347187 -0.05092525
-0.047606543 -0.019484201 0.00012552248 0.038592782 0.0077071595 -0.0009185026 -0.08037055 -0.053420253
-0.06274511 -0.09579416 0.02296684 -0.07667609 -0.04116568 -0.013107444 -0.023904428 0.008356631

action_model._discrete_distribution.branches.0.weight f4 [3, 64]
00000000: fac7 9b3c c715 e93d 517c 9dbb 0e8a fabd
00000010: 63ce 243b 0252 113d 17a8 b5bb 91ac 47bd
00000020: 003d d2bb b69c fbbd a8a4 943c ea96 2a3d
00000030: b114 c4bd ee27 133d b285 2d3d 01fe 71bd
00000040: 8b72 8bbd 1c5e bcbd fcec 333d e09c c5bd
00000050: aad6 7c3c e2ad 17bc 6f69 d43c c2f7 3c3d
00000060: 0bce 553b 31a1 df3d bc97 fabb 543e 003c
00000070: eadc 1f3d 7f99 003e 6321 0c3d 3d3d 2dba
00000080: 805c 6d3c 86ac a53c 058c a6bd d5d5 16be
00000090: dd11 0e3b 6556 35bd 5fc7 5abd 989a 8abc
000000a0: a979 fd3b 10eb 473d 6d95 2dbe 49c8 54bd
000000b0: 4b9c 7b3c 9b34 3abd b6d5 ec3c c270 013b
000000c0: d023 61bd d304 363d a3d6 c93c f01b bd3d
000000d0: 26e3 7f3c a52a 2d3e cb1d b1bd 697b 93bc
000000e0: a324 6f3c 275b eabc 618e db3d 9dc0 99bd
000000f0: 6f7a 8e3c 4838 c93c c44f c5bd e787 f03c
00000100: 5eed 1c3d 5ab2 bebc 65b4 41bd 1b52 d83c
00000110: 60ea 0f3d a59f 44bd 3657 603d dac1 8cbd
00000120: 0492 29bc de68 b53d 1d54 b63c 8923 a0bc
00000130: caf6 73bc c114 633d 6cb1 3bbd faa7 a83c
00000140: 12cd 063e ffd3 103e ee28 e53d e0cc f93b
00000150: 82c7 083e 7716 053e 131b eebb af66 22be
00000160: cf65 10bd 97b9 f83c 3cfc 823d 04fd d93d
00000170: 8d01 3bbb 1c0a cebd af50 8ebc 238d f1bd
00000180: 2c14 de3c 569d f1bc 65d0 2d3e 359f 273e
00000190: d292 a0bd 1f93 f03c c26d 9fbd 52cf bd3c
000001a0: b174 3c3d ee41 31bc bdec 8d3e ece3 ecba
000001b0: 4ade 493d 1b90 a43d 767d 413d 475e 19be
000001c0: 53b3 01be 8183 9dbd 48c2 be3d 8ba2 c4bd
000001d0: 976c c0bc fa39 00be 3fb1 1e3c 15ca adbd
000001e0: f954 e6bd 7b07 413d dfec 11be 1245 9d3d
000001f0: 275a acbc 687a 193d 4b81 a33c a982 e5bc
00000200: 4d05 78bd 33c6 8bbd 342e 793d d0a2 7f3d
00000210: 651f a1bc 98e3 073b ca4f 97bd 06a4 ca3d
00000220: a2b5 6e3c a479 543c 81a6 1ebd e2a2 b0bc
00000230: a92b 923d 79f7 43bd 5ff1 95b6 6286 a13d
00000240: dd82 91bd c216 55bd 84ab 2cbe 3b2b dd3d
00000250: 8dcc dfbd 9553 04be eccf cf3c be2f 973d
00000260: d8d1 613d 8792 ecbd 24ec 8dbd e5cf b3bd
00000270: 0740 2bbc 492e 50bd e6cc 2ebb e445 cb3d
00000280: c57f 88bd 124f 033c d31a c5bd ce09 f3bc
00000290: bba7 913d d65e 0b3d 1d36 a83d 4318 17bc
000002a0: 0c22 aabd ec8b 88bc 4249 32be dbc6 893d
000002b0: df7f f7bc a6d9 32bd d4af bbbd 2666 ff3d
000002c0: c703 123e df4c 033d e759 a5bd 5e01 65bc
000002d0: 6eee f03c e9d5 2ebd e21e 9a3d f8d2 d63d
000002e0: c9b5 a53d 9675 bbbc 51a3 8f3d cb6c ed3b
000002f0: df61 d4bc 17a3 61bd 58ff 763d 5e74 97ba
0.019016255 0.11381107 -0.0048060794 -0.12233363 0.002514743 0.0354786 -0.0055437195 -0.048748557
-0.006415963 -0.122857496 0.01814492 0.04164783 -0.09574259 0.03592675 0.04236383 -0.059080128
-0.06808957 -0.091976374 0.043927178 -0.09649062 0.015432039 -0.0092577655 0.02592918 0.046134718
0.0032624032 0.10919417 -0.0076474827 0.00782736 0.03902904 0.12558554 0.034211528 -0.00066085515
0.014487386 0.020223867 -0.08132175 -0.14730008 0.0021678128 -0.044271845 -0.05341279 -0.01691942
0.0077354503 0.048808157 -0.16951533 -0.05194882 0.015357087 -0.045460325 0.028910499 0.0019751047
-0.054965794 0.044438194 0.02463848 0.09233844 0.015618121 0.16910799 -0.08648261 -0.018003182
0.014596137 -0.028607918 0.10720516 -0.07507441 0.017392365 0.02456297 -0.09634355 0.029361678
0.03831231 -0.023278404 -0.04729118 0.026406338 0.035135627 -0.04800381 0.05477067 -0.06872912
-0.010349754 0.088578925 0.022256905 -0.019548194 -0.014890382 0.055439714 -0.0458235 0.02058791
0.13164166 0.1414337 0.11189447 0.0076233 0.13357356 0.12996851 -0.007266411 -0.15859483
-0.035253342 0.030361934 0.06395766 0.10643962 -0.002853486 -0.10060522 -0.017372457 -0.11794498
0.027109228 -0.029493969 0.16974027 0.16369326 -0.07840504 0.029367028 -0.077846065 0.023170147
0.046009723 -0.0108189415 0.2771968 -0.0018073297 0.049284257 0.080352984 0.04723879 -0.1497737
-0.12666063 -0.07691098 0.093144 -0.09601315 -0.02348928 -0.12522116 0.009685813 -0.0848581
-0.11246676 0.047126275 -0.14250515 0.0767919 -0.021039082 0.03747025 0.019959113 -0.028016405
-0.06055193 -0.06824913 0.06083508 0.06241113 -0.01966829 0.0020735022 -0.073882654 0.09894566
0.014569672 0.0129684545 -0.03873301 -0.021562044 0.07137234 -0.04784343 -4.4686453e-06 0.078869596
-0.07105038 -0.052023657 -0.16862303 0.10799261 -0.10927687 -0.12922509 0.0253677 0.07382153
0.055131763 -0.115513854 -0.06929806 -0.08779887 -0.010452277 -0.05082539 -0.0026672422 0.0992544
-0.06664995 0.008014457 -0.09624257 -0.029667761 0.0711207 0.03402599 0.08213446 -0.009222093
-0.08307275 -0.016668282 -0.17410758 0.06727382 -0.03021234 -0.043664597 -0.09164396 0.12470655
0.14259253 0.032055732 -0.08073788 -0.013977377 0.029410567 -0.04268447 0.07525422 0.10489458
0.080913134 -0.022883218 0.07013572 0.007245635 -0.025925575 -0.055087175 0.06030211 -0.0011555066

action_model._discrete_distribution.branches.0.bias f4 [3]
00000000: b52a 31bc 1d33 523b 2183 443c
-0.010813405 0.0032073923 0.011994154

action_model._discrete_distribution.branches.1.weight f4 [3, 64]
00000000: 725b d43c e87c 99bc 027e 9d3c aa4f e6bd
00000010: e3af f03c 747b 483d 469e ffbb 51b6 893c
00000020: 6c5f 383c f131 83bd 9ccf 02bd 6186 6c3c
00000030: b0f1 38bd 844a b4bd b278 73bd 5cf2 9c3d
00000040: ebf9 aabd 4045 283d 9fdd b43c ec60 bc3c
00000050: d799 92bc 3c77 3ebb c406 5f3b c237 d1bc
00000060: 7381 6d3d 0e8e d03c d35c c5bc 31ae 373c
00000070: 93ed debc 0329 27be 7c58 10bd 256e 2abd
00000080: 6a81 823c 9da8 8c3d 0731 e83d 56f7 f43c
00000090: 15d2 d83c d189 3abc ae21 263d da92 c1bd
000000a0: bf40 c73c 15ad 9ebc 8206 80bc 9ad4 07b9
000000b0: 65e3 8ebd ca37 10bc d10b 183c 88c0 ce3d
000000c0: 3204 00bd 6a64 5b3c e855 b6bd f971 c9bc
000000d0: 6642 2f3c a0f2 4fbe 7ea0 15bd fbfb 993b
000000e0: a2cd b33d 2e4b aebc 9be2 113e 14f7 6439
000000f0: 4872 e3bc 73f8 12be 4edb 5abd af76 5a3d
00000100: 5254 54bc e400 923d 3320 0a3d 90f6 d83d
00000110: 24a7 4e39 cbe3 16bd f18a 87bd 9cfd dd3d
00000120: 9ece 24be 3bd6 043c 4668 22bd 7f4d 18bd
00000130: 9082 123c 3e21 bc3d 029a 433d 8838 063e
00000140: c32a 1b3e 1e1f 19be 3d5d c7bd 077f 103c
00000150: ac5b 8d3d c25b 033c a3ff 08be 300e 0a3d
00000160: b831 09be b458 7d3c 69c0 46bc 00d5 e2bd
00000170: 308e 3fbd 7388 803d a82b 8cbd 54b9 133e
00000180: 94be f53c e477 c6bc 74fc eebd fba3 0c3e
00000190: 60d2 2f3d 7086 273d e636 36be 61eb 4d3d
000001a0: 4c3a 2abc d106 f3bb c1a5 623d 92e2 6ebd
000001b0: ddd6 563d bda3 343e 3123 85bd 90ae 14be
000001c0: b4bb 5a3c 412e 04be a220 583c c118 b0bd
000001d0: f530 3fbe d4c7 703d 73d2 0c3e 3daa 77bd
000001e0: 35e7 bfbd 5c86 cabb 3ab2 c93d acbd 3dbd
000001f0: bb60 833d 74a6 293b c909 7339 1a93 c43d
00000200: fd30 4abc d3c1 74bd 1d0f 71bc fe2b 083d
00000210: c277 fcbc 0a0d faba 5952 b03d d109 2cbe
00000220: 4298 e43d a0bf 453c 3c7a 513d c507 a63c
00000230: 2248 b43c d0b1 4abc 4e72 a7bb 118f 7cbe
00000240: 76b1 a0bd f5a7 bf3d ec61 523d f90b 83bd
00000250: c465 8bbc 5422 7d3c 82a1 c13d dc72 533c
00000260: 63a1 513d d39e 613b db14 5a3d 7c49 ea3d
00000270: fe15 d83d 3958 db3d 5f41 833d 4fd0 acbd
00000280: 265b 43bd 8c80 24bd 1383 b0bc e086 26be
00000290: 2909 cabd 979a b8bc e5ef ce3d 6b1c 233d
000002a0: 9f2d ea3b 0f8c b23b 1198 b1bb 4ca2 683d
000002b0: 0b68 5a3b ed51 16be 2438 5c3d e2fc 903c
000002c0: abee c1bc c642 af3d 603a a83d aa20 f03d
000002d0: 92ae ef3d 6d18 ec3d 6d56 b6bd 1341 b43d
000002e0: 05bd f43a 7510 403d 3e56 88be f5f3 b23c
000002f0: fa39 01bd 480e 103e 785b 623d 967b 06be
0.02592251 -0.018736318 0.019225124 -0.112456635 0.029380744 0.04894586 -0.00780085 0.016810568
0.011253219 -0.0640601 -0.031936273 0.014436335 -0.045152366 -0.08803275 -0.059441276 0.07663414
-0.08348449 0.041081667 0.022078333 0.022995435 -0.017895622 -0.0029062768 0.0034031132 -0.025539283
0.05798478 0.025458362 -0.024092114 0.011210964 -0.027212894 -0.16324238 -0.035240635 -0.04160895
0.01593085 0.06868098 0.11337476 0.029903095 0.026467362 -0.011385397 0.040559463 -0.09451838
0.024322866 -0.019369641 -0.015628103 -0.00012953804 -0.06976966 -0.008802364 0.009280161 0.10095316
-0.031254 0.01339064 -0.08903104 -0.02459048 0.010696983 -0.20307398 -0.03653001 0.004699228
0.08779456 -0.021276083 0.142466 0.00021835818 -0.027764454 -0.14352588 -0.0534318 0.05333584
-0.012959557 0.07129076 0.033722114 0.10593903 0.00019707956 -0.036838334 -0.06618298 0.10839388
-0.16094443 0.008107717 -0.039650224 -0.03718328 0.008942261 0.09186028 0.047754295 0.13107502
0.15153031 -0.14953277 -0.09734581 0.008819348 0.06902251 0.008017482 -0.13378768 0.033704937
-0.13397872 0.015463043 -0.012130835 -0.11075783 -0.04676646 0.062760256 -0.06844264 0.14426166
0.029998101 -0.02422709 -0.11669245 0.13734429 0.04292524 0.040899694 -0.1779438 0.050273303
-0.010389876 -0.007416584 0.055333856 -0.058321543 0.052451003 0.17640586 -0.06500853 -0.14519715
0.013350416 -0.1290827 0.013191374 -0.085984714 -0.1867102 0.05878432 0.13752155 -0.060465086
-0.09370271 -0.0061805677 0.09848447 -0.046323463 0.06414934 0.0025886567 0.00023177931 0.0959837
-0.012340781 -0.059755158 -0.014713076 0.03324508 -0.030818824 -0.0019077372 0.086094566 -0.1680062
0.111618534 0.012069613 0.051141962 0.020267377 0.022007052 -0.012371495 -0.0051100617 -0.2466395
-0.07846348 0.09358207 0.051362917 -0.06398768 -0.0170163 0.015450079 0.09454633 0.012905803
0.0511793 0.0034426942 0.053242546 0.11439797 0.1055107 0.107101865 0.06408953 -0.08438169
-0.047694348 -0.040161654 -0.021546876 -0.16262388 -0.098650284 -0.022534652 0.1010435 0.039822023
0.0071465517 0.005448825 -0.005419739 0.056795403 0.0033326175 -0.1467969 0.053764477 0.017698709
-0.023673376 0.08557658 0.08214259 0.1172498 0.117032185 0.11528096 -0.08903203 0.088014744
0.0018672055 0.046890695 -0.26628298 0.021844843 -0.03154943 0.14067948 0.055263013 -0.13133082

action_model._discrete_distribution.branches.1.bias f4 [3]
00000000: c293 2e3d 6635 bdbc 8aaf 87bc
0.04262138 -0.023096751 -0.016563196

action_model._discrete_distribution.branches.2.weight f4 [3, 64]
00000000: 941f 96bb ca62 62be a43e 873d 1d4c ab3c
00000010: ecfc e53c 4480 42bc 4fe9 61bc 8d8f 013e
00000020: 0689 e03c fa70 ae3c f9e6 adbd 9ff9 0cbd
00000030: b3c4 c03d 6e80 50be 0d23 e7bc e53c 1d3d
00000040: 1556 3a3e 542b df3d 8e12 7e3d 2982 353e
00000050: d107 77bd d1c6 453e df7f 81bc 6448 aa3d
00000060: d183 bf3d 0f81 d9bc 583a 583d 8fd0 7cbd
00000070: 3408 2fbe e8c7 31bc e261 b93c 2623 85bd
00000080: c938 7ebc 23d4 29bd 95a0 103e 8d01 433e
00000090: f185 babb 55c7 a53d 8067 e73d 0c4a 8a3d
000000a0: f92b 1abd 523e f9bd f4fa 853e f536 6abc
000000b0: 900a 4cbe 1813 f93b 14e4 52bd d788 a13d
000000c0: c7fe 4d3e c8b8 7fbd 094e a0bd e943 54bd
000000d0: edfa 4e3d 2165 babd 4966 4c3e 9b8d e53d
000000e0: 6701 373d 3cdd 1bbe 2b82 fbbb 4087 1bbd
000000f0: cb95 3abe abec 05be fb40 293d 51ed 61bd
00000100: 4df1 e93d 726c a43c 8239 edbb 576d c73c
00000110: cf0a 623c 7a1f 12bd 0590 683d 8a29 583d
00000120: ad93 87bd 5728 72bc 9dde 693e d506 30be
00000130: 9023 e9bd 8986 9fbc 71c6 55bd 621c 9cbd
00000140: a1a8 6dbd 8e33 40bc 4c90 343d a4a9 bfbc
00000150: 525c 4dbc 750c fabd 44a4 e8bd 6b5b dbbc
00000160: 5819 13be 536e 7ebe 57f3 46be ccab 4d3e
00000170: 3a11 e7bd 480b 443d 28d9 883a 6896 cc3d
00000180: d9c9 603d fd72 2ebc 334a dcbd fcba 98be
00000190: 26b6 1a3e 349b 72bc 2eb4 81be 5094 33bd
000001a0: 8041 863d b104 273e 8634 05be 8556 20be
000001b0: 1917 7f3e 8051 973d ba2e e93d 7b85 07bc
000001c0: bc9a 5abe bb8c 483d 1ab6 0f3e cfbf d7bd
000001d0: 18eb 3bbe 2e5d 8e3d 3627 94bd b66a 2fbe
000001e0: bf37 8c3c ef03 103e 4e4a a03d 9303 86bd
000001f0: 43dc 5a3e e75f a3bd 7a01 333d 1f06 5f3e
00000200: 97e2 32be 7e8b 413e af91 01bc 6e28 1bbd
00000210: 2be3 0fbd db5b 2b3d b0e1 82bd 590b 8abe
00000220: 370c 523d e011 a0bb 7fdf 65be 28ab 2c3e
00000230: f58f 0a3d 453d 523e 5b47 8b3d 5fe7 9abc
00000240: 78dc 30be 2874 2fbe 6b73 20be abed 41be
00000250: 7fc8 cf3d 5729 c0bd 8031 e43d b0d3 b5bd
00000260: 9622 893d ee61 1a3e 1d4e ad3d 3707 8dbe
00000270: 7654 7f3e f874 e1bc ac69 0fbd 19d1 7fb9
00000280: 9c41 7cbc ce40 773d 826c 77bd 9280 9c3c
00000290: 738f 25be e1e5 23bd bc14 883d 2beb 16bd
000002a0: 65c1 22bd 4616 b3bd f2fa 69be 2a51 033e
000002b0: 970a b1bd 7c57 a1bd 4ae2 35bd d9da 98bd
000002c0: add1 28bd 00fa d43c db8d 05bd 5438 323e
000002d0: 6579 9f3d 4879 ed3c 0090 28be e390 eb3b
000002e0: 5946 91bd 3fc2 dd3c 47ce 80bd e8fc a83d
000002f0: e455 dabc b7b8 4c3e 171c 6ebd f946 56be
-0.004581401 -0.22107998 0.066037446 0.020910317 0.028074704 -0.011871401 -0.013788535 0.12652417
0.027409088 0.021294106 -0.0849132 -0.034417745 0.094125174 -0.20361492 -0.028214956 0.03838815
0.181969 0.10896936 0.062029414 0.17725433 -0.06031019 0.19314124 -0.015808044 0.08314589
0.09351314 -0.026550798 0.052790016 -0.061722334 -0.17092973 -0.010850884 0.022629682 -0.06500845
-0.015516468 -0.041462075 0.14123757 0.1904356 -0.0056922366 0.0809466 0.11299038 0.067524046
-0.03763959 -0.1217009 0.26168025 -0.014295329 -0.19925904 0.007601153 -0.051487043 0.07887428
0.20116721 -0.06243208 -0.07827384 -0.051822577 0.05053227 -0.0910132 0.19960894 0.1120865
0.04467907 -0.15221113 -0.0076754293 -0.03797078 -0.18221204 -0.13078563 0.041321736 -0.055157963
0.114229776 0.020071242 -0.0072395215 0.02434413 0.013796522 -0.03567455 0.056777973 0.05277399
-0.06619964 -0.014780126 0.22838826 -0.17190106 -0.11383736 -0.019473331 -0.0521912 -0.07622601
-0.058022145 -0.011731042 0.044082925 -0.02339632 -0.012534218 -0.12209407 -0.11359456 -0.02677699
-0.14365137 -0.24846773 -0.19428764 0.20085067 -0.112825826 0.04786232 0.0010440694 0.09989625
0.054879997 -0.0106475325 -0.1075634 -0.29830158 0.15108547 -0.014807511 -0.2533278 -0.043842614
0.06555462 0.16310383 -0.13008317 -0.15658005 0.24911155 0.07388592 0.113858655 -0.00827157
-0.21348089 0.048962336 0.1403431 -0.105346315 -0.183514 0.06951366 -0.072340414 -0.1713055
0.017116426 0.14064 0.078266725 -0.065436505 0.21373086 -0.07977276 0.04370258 0.21779679
-0.1746925 0.18900868 -0.007908269 -0.037880354 -0.035128754 0.041835647 -0.06390703 -0.26961783
0.05128118 -0.0048849434 -0.22448538 0.16862166 0.033828694 0.20531185 0.06800719 -0.018909154
-0.17271602 -0.17134154 -0.15669028 -0.1893832 0.101456635 -0.09382885 0.11142254 -0.08878267
0.0669605 0.1507642 0.084621646 -0.27544567 0.24934563 -0.027521595 -0.035012886 -0.0002439659
-0.015396502 0.060364537 -0.060406215 0.019104276 -0.16168003 -0.04001415 0.0664458 -0.036845367
-0.039735217 -0.08744483 -0.22849634 0.1282393 -0.08644598 -0.078780144 -0.04440526 -0.07463617
-0.041215587 0.025998116 -0.032605987 0.174043 0.07786826 0.028988495 -0.16461182 0.0071889027
-0.07093496 0.027070163 -0.06289344 0.08251363 -0.026652284 0.19992338 -0.058132257 -0.20925511

action_model._discrete_distribution.branches.2.bias f4 [3]
00000000: 3eec bb3c 64c4 2dbc da9b 4fbc
0.022939797 -0.010605905 -0.012671435

action_model._discrete_distribution.branches.3.weight f4 [2, 64]
00000000: 7448 c83c 475e d93c 8983 e2bd 80dd c03d
00000010: 859e 77be a6f9 06be 237a b3bd 9479 293c
00000020: 004e debd 7fef 3cbe eb04 b7bc 789c 44bc
00000030: 62f1 bcbb 00dd aa3c e6c0 26be 072f 10bd
00000040: 5507 42bd da96 85bd 3b6c 843c a28c d13d
00000050: c148 e53c b7ca ddbd 48a7 ef3b 405d 143d
00000060: a5fa 91bc 5779 64bc 264d ec3c fae8 5fbc
00000070: 81af 0e3d da89 cf3d dc46 88be d3ce d6bc
00000080: 2ac8 ae3d 1c78 18be 1e40 51bd 7362 ad3c
00000090: efdd 34bd 3065 d0bd 5720 d33b 0a8b 0fbd
000000a0: 6bac 5dbe 92c1 91bd d32f f0bd 53ba 8bbb
000000b0: 6685 263d ddff 9fbd 01b7 b83c f40b 6d3d
000000c0: 9871 bfbc aac4 1bbd 45df e8bd d14d 15bd
000000d0: 4b3a ba3c cf4f 113e 6e3b e13c c862 703d
000000e0: 4234 a93d dc89 233d ed1c 72bc dcce 403d
000000f0: f8bc e0bc ef60 1abd 4175 6c3d 5219 163d
00000100: c999 26bd 6639 2ebd f664 c13d 7c47 d0bd
00000110: 0bc7 763e 7232 093e cd20 a43d 0be7 ae3c
00000120: 595b b83d 18ff 353e 2374 983c 2709 a33c
00000130: 3df3 813c 1908 4e3c e1c4 333e 6864 323d
00000140: c858 083d be18 843d 92e4 d2bc f869 b2bd
00000150: 7f2d 06bd 2312 ed3d 868a b1bc b152 84bd
00000160: b6ce 543c 8a24 5b3d f5f6 c2bb 2ac0 d5bb
00000170: b4c7 cebc cdde b3bd 31df 7b3e a3e8 3f3d
00000180: 4351 eebd de97 1d3e 90a0 313d 7957 56bc
00000190: d606 853c 4e3c d33d 59ad 49bc e445 343d
000001a0: 3453 6e3e 491d 963d 6459 e83d c357 f5bb
000001b0: 2d23 febc a01d 973d d82c db3b 260a 05bd
000001c0: d2c8 833c 7779 913d b23b ba3d 3530 213d
000001d0: e5eb b13c 69a2 fbbd f642 d6bc 647d 3ebd
000001e0: 501b e0bd 395a 993b 5404 223d 190f f1bc
000001f0: 7b2c ba3c 34f0 043c 24fe 9abd 7a3e 52bd
0.02444861 0.026534213 -0.110602446 0.09417248 -0.24181564 -0.13181171 -0.0876353 0.010343928
-0.10854721 -0.18450736 -0.022341212 -0.012000196 -0.0057660798 0.020857334 -0.16284522 -0.0352011
-0.047370274 -0.06522913 0.01616489 0.10231902 0.027988793 -0.108296804 0.0073136427 0.036221743
-0.017819712 -0.013944945 0.028845381 -0.013666386 0.034835342 0.10133715 -0.2661656 -0.026221668
0.08534272 -0.14889568 -0.051086538 0.021165108 -0.044156965 -0.1017555 0.006443064 -0.035044707
-0.21647803 -0.07116999 -0.11727872 -0.004264155 0.040654562 -0.07812474 0.0225482 0.057872728
-0.023369595 -0.03802935 -0.1137071 -0.036451165 0.022732874 0.14190601 0.027494159 0.058687955
0.082619205 0.039926395 -0.014777404 0.047072276 -0.027433857 -0.0376901 0.05772901 0.03664524
-0.040674005 -0.04253521 0.09443085 -0.101698846 0.24099366 0.1339815 0.08014069 0.021350404
0.09001798 0.17773092 0.018610066 0.019901825 0.015863055 0.012575173 0.17555572 0.043552786
0.033287793 0.06450032 -0.025743756 -0.08711618 -0.032758232 0.11575725 -0.021672498 -0.06461085
0.012988737 0.053501643 -0.0059498497 -0.006523152 -0.02524171 -0.0878273 0.2459686 0.04685272
-0.11636593 0.15389964 0.043366015 -0.013082379 0.016238611 0.103142366 -0.012309396 0.044011965
0.23273927 0.073298045 0.11345175 -0.0074872687 -0.031022632 0.073786974 0.0066886954 -0.03248038
0.01608697 0.07103246 0.09093417 0.039352614 0.021718929 -0.12286837 -0.026154976 -0.0465063
-0.109427094 0.004679945 0.03955491 -0.029426144 0.022726288 0.0081139095 -0.07568005 -0.051329114

action_model._discrete_distribution.branches.3.bias f4 [2]
00000000: e221 a2bd e521 a23d
-0.07916619 0.07916621

onnx::Div_110 f4 [11]
00000000: 4724 ca3e 5d83 9f3e 93b3 a93e cade 0a3f
00000010: 0729 bf40 07b5 f73f 65b0 f640 f34b eb3f
00000020: fa81 0b41 0330 8c40 008d 4c40
0.39480802 0.3115491 0.33144817 0.542462 5.973758 1.935212 7.7090325 1.8382553
8.719233 4.380861 3.196106
