Assets/Models/Submissions/MyVolleyballBrain.onnx (onnx, 299422 bytes, 15 tensors)

discrete_act_size_vector f4 [1, 4]
000000 00 00 40 40 00 00 40 40 00 00 40 40 00 00 00 40
       3.0 3.0 3.0 2.0

network_body.observation_encoder.processors.0.normalizer.running_mean f4 [11]
000000 5e e0 a9 3d f0 f7 24 bc 4c 83 ee 3e d6 da e2 3e
       0.08294748 -0.0100688785 0.46584547 0.44307584
000010 ff 64 26 41 1c 89 b5 3a e3 b5 81 bf e1 dc 9b 3b
       10.399657 0.0013850066 -1.0133632 0.0047565554
000020 e5 9a 9a c0 91 9f 68 3c a3 97 87 3c
       -4.831408 0.0141982 0.016551798

network_body._body_endoder.seq_layers.0.weight f4 [256, 11]
000000 91 5e 2f bb f4 46 03 3d ea ea 30 bf 4a 85 1f 3d
       -0.0026759247 0.032050088 -0.6910845 0.038945474
000010 a1 ca dd 3e 3d ea ab bd a3 7f aa 3e 11 f1 f0 be
       0.43318656 -0.08394287 0.33300504 -0.4705892
000020 c3 a0 3e 3f b9 d6 d4 bd 2a 14 f5 be 20 5d 8d be
       0.7446405 -0.103925176 -0.47866946 -0.2761011
000030 61 c4 c8 be 3e 28 0b 3e d8 bd e5 be 4b dc 2e 3e
       -0.39212325 0.1358957 -0.44871402 0.17076223
000040 65 8d 14 3d 10 02 85 3e b5 b7 a7 be 67 57 35 be
       0.036267657 0.25978136 -0.32757345 -0.17709123
000050 11 5c 6b be 80 a1 fd 3e 6a 58 99 3c 57 17 1c 3f
       -0.2298434 0.49537277 0.018718917 0.60973114
000060 87 04 ed be e7 a3 ec bd bf c8 82 be 24 f4 ee be
       -0.46292517 -0.115546994 -0.25543782 -0.4667064
000070 4b ae 59 3f a1 64 e5 bd 80 fa bb 3e 06 29 a3 3e
       0.85031575 -0.11200834 0.36714554 0.31867236
000080 dd 3e fe be 7e 76 8a bc b0 43 d2 3e 23 c5 8d 3e
       -0.49657336 -0.016902205 0.41067266 0.27689466
000090 96 20 ef 3d 1a 22 7c be e6 f0 5b 3f d0 20 b2 be
       0.11676137 -0.24622384 0.85914457 -0.3479066
0000a0 d1 3f 2c be 52 bc 12 3e cd 61 ab bc a0 91 02 3e
       -0.16821219 0.14329651 -0.020920658 0.12750864
0000b0 9d de 05 bd d3 5e 8c 3e 2f 7b 0f 3f c9 d3 66 3d
       -0.032683004 0.27416095 0.5604734 0.056354318
0000c0 94 ec 16 3d 15 6c d4 be 36 25 59 be c4 08 7b 3e
       0.036846712 -0.4148871 -0.21205601 0.24515063
0000d0 d6 a5 41 3d b6 8b fa bd 1c b1 c2 be 40 6c fe be
       0.047277294 -0.12233679 -0.3802575 -0.49691963
0000e0 e8 3f 37 be 18 fb 83 3e b2 5f ae be 96 9a 41 be
       -0.17895472 0.25777507 -0.34057385 -0.18906626
0000f0 9a 81 20 3f b2 c8 86 be 3f 25 b3 be 1e ec d6 be
       0.62697756 -0.26324993 -0.34989354 -0.41977018
000100 72 c2 44 3e 1d 92 9b 3b d8 7e a4 3d 67 23 d7 be
       0.192148 0.0047476427 0.08032006 -0.42019197
000110 36 c3 1f 3f 94 e1 96 3e 93 ed ae be 1d 65 bd bd
       0.62407243 0.29468977 -0.3416563 -0.092478015
000120 1d 67 67 3e 9b 24 9c 3e 72 f4 76 be e3 a3 18 bf
       0.22597928 0.30496678 -0.24116686 -0.5962507
000130 8f f7 ce 3e 96 ef 5d 3f c0 aa 99 bb cc 6c 1a be
       0.40423247 0.86693704 -0.0046895444 -0.15080565
000140 d8 18 c3 be af 30 1e 3d 40 f2 94 3e 02 e4 90 3e
       -0.38104892 0.038620647 0.29091072 0.28298956
000150 66 83 81 be 13 43 e7 3d ae a5 e5 3e 5d 51 d8 3e
       -0.25295562 0.1129209 0.44852966 0.42249575
000160 a9 9c 4c 3f 49 54 0f 3e 0b 37 3e be 44 35 02 be
       0.79926544 0.13996996 -0.18575685 -0.12715632
000170 0a 6b ee be cf b9 ad 3e ee 45 b0 3e 7f df c8 3d
       -0.4656604 0.33930823 0.34428352 0.098082535
000180 35 48 bf be a9 53 59 bf a2 3c 87 bd 80 8c a6 3c
       -0.37359777 -0.8489328 -0.06603362 0.020330667
000190 e5 61 9a be 02 f5 39 3f 19 8a 63 3e 7b 4f 24 3e
       -0.30152813 0.7263948 0.22220649 0.16045944
0001a0 68 72 2e bd 38 2e 1f be b5 ed 24 3e 6c 4a e6 3e
       -0.042589575 -0.15544975 0.16106303 0.44978654
0001b0 3b 49 45 3d 5a 2b 24 be a4 b8 20 be 67 61 14 be
       0.04816554 -0.16032162 -0.15695435 -0.14490281
0001c0 c9 59 e3 3e c4 03 08 3f db f8 b5 be ad 89 29 bf
       0.44404438 0.53130746 -0.35541424 -0.662257
0001d0 8d e8 4e be 6f ba 5e 3e ad 93 94 be 02 95 89 bd
       -0.20205899 0.21750806 -0.29018918 -0.06717874
0001e0 91 46 b5 3e ba f7 76 3e f3 f2 a5 3e f9 d1 8b bd
       0.354054 0.24117938 0.32411918 -0.068271585
0001f0 db fd f2 be a3 78 0b bf bc 1d 0f 3d 60 ae 3f be
       -0.474593 -0.5448095 0.034940466 -0.18718863
000200 45 30 ee be 01 ab b9 3d 22 c7 e8 3e 8f 08 a2 3d
       -0.46521202 0.090658195 0.45464426 0.07911789
000210 43 44 fb be 2b 08 e7 3e 27 a7 3e 3d 6a 61 d2 3e
       -0.49075517 0.4512342 0.046546128 0.41089946
000220 8a 0f c0 be c5 0d 33 3d 17 89 ce bd 4c 45 90 3d
       -0.37511855 0.043714304 -0.100847416 0.07044467
000230 f0 b5 cd be 8b 8b bf bd 8e 3c 5a 3d 4a 6f 5d bf
       -0.4017787 -0.093527876 0.053280406 -0.8649794
000240 f2 94 a8 be 22 36 16 bf 5d 81 97 3d c5 35 f8 3d
       -0.32926136 -0.5867635 0.07397721 0.12119631
000250 94 a0 91 3e 15 f2 d1 bc bf 39 17 bd 88 45 25 3f
       0.28442824 -0.025628129 -0.036920305 0.6455922
000260 80 b8 06 3f 49 2c 65 3e 77 23 63 be 54 96 fa 3e
       0.52625275 0.22380175 -0.22181498 0.48942816
000270 08 50 0c 3d 29 76 ec bb 70 64 c8 bc a3 57 9b be
       0.03425601 -0.007216234 -0.024461955 -0.303403
000280 9a 0a 48 be b0 35 38 be 14 07 16 3e e6 90 79 be
       -0.19535294 -0.1798923 0.14651138 -0.2437168
000290 c0 77 f5 3e 86 16 86 3e d3 b1 2b 3c 53 9b 7c be
       0.47942924 0.2618906 0.010479408 -0.24668626
0002a0 c3 f3 1d 3e da a3 33 3e 32 1a af 3d d4 03 f4 be
       0.15425019 0.17542973 0.08549918 -0.4765917
0002b0 66 13 43 3e 91 74 95 3e 61 bd 68 bc a9 8d ef 3c
       0.19050369 0.29190496 -0.014205308 0.029242354
0002c0 de 3a 24 3e 80 58 70 3e ad 13 ad 3e fc a3 0a 3f
       0.16038081 0.2347126 0.33804074 0.5415647
0002d0 46 ab 40 3c 0c 0f db 3e f1 74 b6 3e d6 c0 6e 3e
       0.011759585 0.42784917 0.35636094 0.23315749
0002e0 37 7e b0 3e cf 3f da be 93 c3 58 be ef a1 66 be
       0.34471294 -0.42626807 -0.21168356 -0.2252271
0002f0 17 ed b3 3e 93 66 2c 3e 70 4c fa 3e e5 dc f5 3e
       0.35141823 0.16836004 0.48886442 0.48020092
000300 f2 03 7f bd c9 32 6d be 9a c8 d4 bd b5 f8 c2 3d
       -0.062259622 -0.23163904 -0.10389824 0.09520093
000310 e5 3f 36 3e 71 9f df be 5b 15 e1 bd 16 3f e4 3e
       0.17797811 -0.43676332 -0.10990401 0.4457938
000320 ae ba fb bd 1b 67 9a 3c 01 9c 66 3e 18 f8 26 3e
       -0.12291466 0.018847993 0.22520448 0.16305578
000330 d6 ea e6 3e ac 5e 8d 3e f8 67 88 bb 1a 04 d1 be
       0.4510104 0.2761129 -0.0041627847 -0.40823442
000340 43 f0 c6 3e 0a c8 77 3e af c0 cb bd a2 b0 70 bd
       0.3885518 0.24197403 -0.09948861 -0.0587622
000350 bb d9 97 be 97 24 16 3e 9b 2a 8a 3d 07 fb 13 3e
       -0.29658303 0.14662395 0.067464076 0.14451228
000360 10 1b 67 be 92 a8 8d bf ee da bc 3e b6 bc 0c be
       -0.22568917 -1.1067069 0.3688578 -0.13743863
000370 99 3d 5b be 83 a1 67 bf d5 87 ff 3e e2 56 26 3f
       -0.21410216 -0.9048082 0.4990832 0.6497632
000380 2c b6 21 3e 86 6e 6d be 32 06 04 bf ba 7d cd 3e
       0.1579215 -0.23186693 -0.51571953 0.40134984
000390 da 14 a2 3e a6 60 40 be d8 cd 18 bc d4 0a 58 3e
       0.31656533 -0.18786868 -0.009326421 0.2109788
0003a0 c3 4d 27 3f f4 a4 ab bd df ee d4 bc d4 1e 10 3f
       0.6535303 -0.08381072 -0.025992809 0.5629704
0003b0 bc ab ea 3d 97 e3 73 be 25 5d e6 3d 4d d5 1e bf
       0.11458537 -0.23817287 0.11248235 -0.6204422
0003c0 29 04 06 3e 2b 6f a3 be ab c0 99 3e 0f fb 8f 3c
       0.13087524 -0.31920752 0.30029806 0.017575769
0003d0 24 4f 70 be 2c 68 41 3e 99 4f 1e 3f da 3d 43 3e
       -0.2346769 0.18887395 0.61840206 0.19066563
0003e0 46 7e 6b 3d 16 75 2e bf 29 a6 5d 3f 6c 7f f7 3d
       0.05749347 -0.6814741 0.86581665 0.12084851
0003f0 6a f8 ad be 86 c8 cf bd 31 9b dc 3e ae db 75 be
       -0.33978587 -0.10145669 0.43087152 -0.24009582

network_body._body_endoder.seq_layers.0.bias f4 [256]
000000 5f 76 5d 3e 20 42 89 3b d6 af 8d 3b 09 81 2b bd
       0.21627186 0.004188791 0.00432394 -0.041871104
000010 8c cb f5 bc f7 cd 7b bd 0c e9 87 bc c8 6f e7 3c
       -0.030004285 -0.06147572 -0.016590618 0.028251544
000020 a0 be b2 3c 63 e5 5d 3a dc bc 18 bd 4b 4e ca bc
       0.021819413 0.0008464662 -0.037289485 -0.024695536
000030 e2 fa c5 3b 92 9b 0e 3e 87 6f b6 ba 4f 58 48 3d
       0.0060418705 0.13926533 -0.0013918736 0.048912343
000040 1c 62 9e 3c cd d7 a4 3d 95 27 48 3d 48 f9 df 3b
       0.019333892 0.08048973 0.048865873 0.0068351366
000050 79 43 75 3d 23 60 6e 3d 03 0d 92 3d bc dc bf 3b
       0.0598788 0.058197152 0.07131388 0.005855171
000060 dd a9 3d bc b7 3f aa bc 3a d4 18 3c a5 d1 9e bc
       -0.011576143 -0.020782335 0.0093279425 -0.019387076
000070 6e 60 69 bc 4e 94 e5 3c 21 f9 02 3e 3c ff c2 3d
       -0.014244182 0.028024819 0.12790348 0.09521338
000080 99 41 e4 bc 3a 68 59 3e b9 db 70 3d 43 d4 2b 3c
       -0.02786331 0.21231166 0.058803294 0.010487619
000090 84 8d f3 bb db 69 99 3d c5 de b1 bb 17 7f 63 bd
       -0.0074326415 0.074908935 -0.0054281675 -0.055541124
0000a0 08 9c 90 3d 19 08 14 bd 06 59 27 3d 05 30 02 bc
       0.070610106 -0.036140535 0.040856384 -0.007946019
0000b0 ee 49 14 3d f2 a0 be 3c 57 e9 62 3d 2e 78 da bc
       0.036203317 0.023270104 0.05539831 -0.026668634
0000c0 17 5c 18 bc 6f 1c 20 bc aa 73 02 bd 50 36 9d bb
       -0.0092993 -0.009772404 -0.031848587 -0.0047977343
0000d0 37 7a ca 3d d5 b2 3c 3d 2e 97 03 bd 82 cc b6 3d
       0.09886592 0.046068985 -0.032126598 0.089257255
0000e0 18 c9 12 3e bf b9 9c 3d f1 01 93 3b 54 d8 24 bd
       0.14334524 0.07652616 0.0044863154 -0.04024537
0000f0 5d 55 07 3d ae 08 68 3c 36 46 46 3d 0a 00 2c 3e
       0.033040393 0.014162226 0.048406802 0.1679689
000100 8e e6 98 bd 1a 14 8f 3d 6c ec ef 3c c4 7b db bc
       -0.0746585 0.06986256 0.02928754 -0.026792414
000110 84 39 60 3d 9a 0e 6f bd c9 66 51 3d 28 59 b0 3d
       0.05474235 -0.058363535 0.051123414 0.08610755
000120 42 aa 0b 3e 33 00 08 3c 72 b3 32 bd 99 52 d1 bc
       0.13639167 0.008300829 -0.043628164 -0.025552081
000130 50 99 4c bd e5 7c 00 3e 50 6b 42 3d ec 60 80 bd
       -0.049950898 0.12547643 0.047465622 -0.062684864
000140 c9 f3 35 3d 2e 28 2f 3e 6e 86 1c bd e3 a7 0c 3c
       0.044421945 0.17105171 -0.03821414 0.008584949
000150 e3 f5 c4 3c 86 36 a7 3c d2 24 55 bd 61 56 38 3e
       0.02404303 0.020411741 -0.052037068 0.18001701
000160 49 9a 5e 3d 3c 32 90 3d be ac 72 bd 82 d0 89 bb
       0.054346357 0.070408314 -0.05924677 -0.0042057643
000170 af d2 0b 3d 3e 60 00 bc 4d 45 be bc a0 f9 ca bc
       0.03413647 -0.007835446 -0.023226405 -0.024777234
000180 22 7e 27 bb 9f 7f 2f 3d 93 27 56 3e 9e f0 ad bb
       -0.0025557359 0.04284632 0.20913534 -0.005308225
000190 c3 88 f4 3d 5a ca 0c 3d d8 b3 78 3d 52 e5 e3 3c
       0.11940148 0.034372665 0.060718387 0.02781931
0001a0 db d2 b6 bc 14 b0 c3 3c 6e cb 6c bd 50 dc 8f bb
       -0.02231734 0.023887672 -0.057811193 -0.004390277
0001b0 f0 33 c1 bc 75 a8 b0 3d 59 fe c3 3d 64 b7 92 3d
       -0.023584336 0.08625881 0.09569997 0.07163885
0001c0 ee b9 bd 3d 75 e2 2c 3b 28 93 65 3d 40 b5 8b bc
       0.09263979 0.0026380096 0.056048542 -0.0170542
0001d0 f7 d7 10 bd 9d 29 45 bd d2 37 67 3d a3 a6 06 3e
       -0.03536221 -0.04813539 0.05644972 0.13149504
0001e0 9c 30 cc 3c 37 bd d7 3d bd 04 a0 bb fa aa 23 bd
       0.024925523 0.10534137 -0.0048833773 -0.039957978
0001f0 b8 27 88 3d 23 3d 7a bc 2c 35 88 bd 4f 6c 4f 3b
       0.06648201 -0.015273365 -0.06650767 0.003165025
000200 55 c8 8b bd bf 0f ef 3d 48 05 42 bd 84 fc 15 3e
       -0.0682532 0.11672925 -0.047368318 0.14647108
000210 e5 9c 4a 3d 29 60 85 3d b6 08 8a 3c c6 cc 8a 3b
       0.049466033 0.06512482 0.016849857 0.0042358367
000220 d8 6a 7c bc 8e d0 c6 3c 8b a8 d5 3d 56 b3 42 bd
       -0.015406333 0.024269368 0.10432538 -0.04753431
000230 08 5a 5c bd c8 07 12 bd 00 60 46 bc 97 29 0b 3e
       -0.053796798 -0.035651952 -0.012107849 0.13590084
000240 6b b8 ad bc 66 c8 9a 3d 74 74 2e 3d d3 10 89 bc
       -0.021206101 0.07557754 0.042591527 -0.016731655
000250 cf cf 05 bd da f6 3f 3c b1 e2 44 3e 21 be dd 3c
       -0.032668885 0.011716569 0.19227101 0.0270682
000260 6d db a3 bc 04 70 fc 3c cf f8 1c 3e c3 c1 03 bd
       -0.020002091 0.030815132 0.15329288 -0.032167207
000270 43 04 0b 3d 04 2e 7d 3d f3 01 6d bd 26 2b ba 3d
       0.03393961 0.061811462 -0.057863187 0.09090261
000280 79 20 f9 3c 75 af 24 bd 41 d4 16 bd fc 38 cc bc
       0.030410992 -0.04020639 -0.036823515 -0.024929516
000290 5d db 04 3d ca 69 86 3d 27 1f 5e bc d4 78 e4 3b
       0.032435764 0.065631464 -0.013557232 0.0069724116
0002a0 61 be 96 bc 8a 2f 20 3d 97 5a 52 3d b3 da 12 3d
       -0.018401327 0.039107837 0.051355924 0.0358531
0002b0 70 b0 d8 3c 28 83 96 3b d3 eb 5e bd f3 b9 d6 bc
       0.02645132 0.0045932718 -0.05442412 -0.026211714
0002c0 7a 8f 06 bd ba f0 e9 3c b9 5b 15 3d a1 25 94 ba
       -0.032851674 0.02855717 0.036464427 -0.0011302718
0002d0 22 15 d8 bc dc 3d 54 3d a9 57 bb bc 7d 34 bd bd
       -0.026377264 0.051816806 -0.022868948 -0.09238527
0002e0 2d 88 3c 3d 14 97 8c bd 22 c5 e1 3c 88 62 d5 3d
       0.046028305 -0.06864753 0.02755982 0.10419184
0002f0 43 02 29 3e 63 a3 26 bc 1c db 20 3d ce 40 73 bc
       0.16504769 -0.01017079 0.03927146 -0.014846994
000300 8d bc 95 bd 56 e5 0b 3d 83 28 43 bb dc fb ca 3c
       -0.07311354 0.03415426 -0.0029778786 0.024778299
000310 55 c6 8f 3d 57 d9 9a bc 33 68 f0 3b 70 35 19 bc
       0.07020251 -0.018902464 0.0073366403 -0.009351119
000320 37 ab 92 3a 44 97 2b 3d b8 0f 8a bc fe 54 eb 3c
       0.0011189942 0.041892305 -0.016853198 0.02872705
000330 99 0f 25 bd 31 c3 07 3e 21 c2 de bd 51 d2 e8 3b
       -0.04029808 0.13258053 -0.10876871 0.00710515
000340 34 56 2a 3d db a5 a7 bc b0 33 9d 3c 55 fb 4f bc
       0.041586116 -0.020464828 0.019189686 -0.0126942
000350 7d 91 c0 bc 0d f7 83 3d 4f 62 74 3c 17 d2 b2 3b
       -0.023506874 0.064436056 0.014916017 0.0054571736
000360 54 32 22 3d a4 86 1e 3d 0d b7 73 bd d6 68 b5 3c
       0.039598778 0.038702622 -0.059500743 0.022144716
000370 53 48 26 3e 7f a0 51 3d 98 4d 8b 3d ff 7a 70 3c
       0.16238527 0.05117845 0.06801909 0.014677762
000380 d8 d3 90 3d 3e dd 31 3d 8f 90 0d 3d bd be 5d 3c
       0.07071656 0.043423884 0.03456169 0.013534245
000390 58 12 f1 3d 88 2a c5 3c 2c 63 4f bb fa f8 44 bb
       0.11771077 0.024068132 -0.0031644804 -0.0030055628
0003a0 31 7a c8 3d 82 55 2a 3c e2 b7 86 3c 78 cc a0 bd
       0.09788931 0.010396363 0.016445104 -0.07851499
0003b0 66 58 08 3d 63 79 2a 3e 59 64 b9 bc e8 cf 0b bd
       0.03328743 0.16647868 -0.022630857 -0.03413382
0003c0 f1 f2 18 bd a9 fb 8d bc 60 23 0e bd 47 6b 04 bd
       -0.037341062 -0.017331915 -0.034701705 -0.03232887
0003d0 77 f3 24 3d e5 af 71 3c 71 a4 42 3d bc 7f 19 3d
       0.04027125 0.014751409 0.047520105 0.037475333
0003e0 a1 9f 39 3d a2 ba 9e 3d ff b3 dc bc ed 7d 1e bd
       0.04531825 0.07750441 -0.026941298 -0.03869431
0003f0 5c 9b 24 3d 46 d7 aa 3c b1 98 42 3d 40 da ea 3b
       0.040187225 0.020854603 0.0475089 0.0071671307

network_body._body_endoder.seq_layers.2.weight f4 [256, 256]
000000 21 d6 88 bc cb 6c d8 bd 6c ed 58 bd 9d e2 13 bc
       -0.016703667 -0.105676256 -0.0529608 -0.009026197
000010 76 1d 16 be f0 ec c1 3c 4c 53 4c bd d7 a6 8b 3c
       -0.14659676 0.02367255 -0.049884126 0.017047329
000020 d4 d1 bd 3d 16 fb 37 3c bf dc 96 3d bd 29 25 3d
       0.09268537 0.011229297 0.07366323 0.040323008
000030 3c 1f 21 bc 76 4f d0 bd 68 fd 13 be b6 55 88 bc
       -0.009834107 -0.10171406 -0.14452136 -0.016642433
000040 fc ad ca 3c 38 d2 b4 bd 13 e5 a2 bb c8 91 f4 bc
       0.024741165 -0.088291585 -0.0049711554 -0.02985467
000050 e4 45 06 bd dd a9 c4 bd da d5 c5 bd 01 b4 73 3d
       -0.032781497 -0.09602711 -0.096599296 0.059497837
000060 92 d8 44 3b aa 6c 83 bd 13 68 34 3d 1e 3a 9f 3d
       0.0030036313 -0.064172104 0.044044565 0.07774757
000070 13 23 67 bd 41 fb 18 bd 77 4f 89 bd f6 c8 22 3d
       -0.056429934 -0.03734899 -0.0670461 0.039742433
000080 8b 88 de 3c bb 40 d8 3d fc aa 99 bc 68 da 4b bd
       0.027164718 0.10559221 -0.01875829 -0.049768835
000090 e9 ee b0 bd 38 7d 93 3c a8 40 3e be d7 3a d8 bd
       -0.086393185 0.018004045 -0.18579352 -0.10558098
0000a0 38 d8 c0 3c 05 19 e9 bd 4a 09 04 bd 4d ae 48 3c
       0.023540601 -0.11381725 -0.03223542 0.012248588
0000b0 a7 10 89 bd 63 db 07 be f8 a1 bb 3a fc df 84 bd
       -0.06692629 -0.13267283 0.0014315238 -0.06488034
0000c0 f1 62 47 bd 60 1d 6c 3c 63 7d 25 bd 7a 84 23 3d
       -0.048678342 0.0144113 -0.04040278 0.03992126
0000d0 e3 43 3f 3d 1a 38 a8 bd 54 48 27 be 00 0b 70 3d
       0.0466956 -0.082138255 -0.16336185 0.05860424
0000e0 74 56 ca bd a9 42 82 3b 1d b4 2a bd 3d 15 07 3d
       -0.09879771 0.0039752317 -0.041675676 0.03297924
0000f0 04 0f ae bd 8e b7 f8 bd 6f 2a 6f 3d 0a 8b 01 3d
       -0.08498958 -0.12144385 0.058390077 0.03162674
000100 71 f5 94 bc fa c7 9a b9 e5 61 09 3d 5a 83 20 bd
       -0.018183442 -0.00029522163 0.033540625 -0.039187767
000110 a9 79 f0 3d 51 5e 56 bb d7 1c de bc 53 6e d9 bc
       0.11741955 -0.0032710026 -0.027113361 -0.026541864
000120 c2 d1 b3 bc 14 19 c3 3d 54 9b b5 3d 77 aa 94 3d
       -0.021950606 0.09526268 0.08867517 0.07259076
000130 aa 81 89 bd a6 62 9b 3d 8f fd b6 3b 7d 21 cd 3d
       -0.067141846 0.07587175 0.0055844258 0.10016153
000140 80 da 9e bc 42 cd 3a 3d 8f c5 24 be 5d b9 88 bd
       -0.019391298 0.045605905 -0.16090988 -0.0667598
000150 1c 60 43 bd b1 e9 87 bc ec 1f 55 bd 89 97 5e bb
       -0.04769908 -0.016590925 -0.052032396 -0.0033964834
000160 19 be 07 3d 94 52 0d 3b 1f 63 3b 3c ec d0 4f 3d
       0.033140276 0.0021564113 0.0114372065 0.050736353
000170 ef 66 55 3c 33 28 fc 3d 53 df 03 3c 47 a3 85 bc
       0.01302503 0.12312355 0.00804885 -0.016313208
000180 0c 11 68 3d 1c 2b a4 3d 92 d0 7f 3c 7c dc f1 3d
       0.056656882 0.08016035 0.015613692 0.11809632
000190 7c fe 07 3d 46 d8 cd 3d f3 d1 57 3d ad af ed bc
       0.03320168 0.100510165 0.052690458 -0.029014433
0001a0 90 82 29 3d 27 dc 2c bd 1a 8e 61 bd 10 51 98 3d
       0.04138428 -0.04220214 -0.05506716 0.074373364
0001b0 0b 85 c0 bd df a9 08 3d ad fb 91 bc dd 51 92 bd
       -0.09400376 0.033365127 -0.017820204 -0.071445204
0001c0 0f 0a 4f 3e f9 c1 a3 3d 87 72 03 be 16 6a 10 3e
       0.20218681 0.07995982 -0.12836657 0.14102969
0001d0 f2 36 04 bd 5b da 1c bd 2b 46 1f bd 4b cc 34 bd
       -0.032278962 -0.038294178 -0.038885277 -0.04414014
0001e0 bf 0f 6d bd 69 f7 73 3b ec e2 83 bd 6f 33 36 3c
       -0.057876345 0.0037226325 -0.06439766 0.011120661
0001f0 f3 90 c9 3b 8e 2c fb 3c 73 9c fe 3a 4a 7c 69 bb
       0.0061513125 0.030660894 0.0019425288 -0.003562706
000200 d9 9d 5b bb df e8 2f 3d a5 87 28 be 70 69 ce bd
       -0.0033510833 0.042946693 -0.16457994 -0.10078704
000210 b8 35 d9 bd d7 a3 86 3b cf c7 b8 bd ae 9d ee bd
       -0.10605949 0.0041088867 -0.090224855 -0.11651169
000220 76 85 b8 3c 66 44 60 3c 38 9a b4 bd a7 ab 8a 3b
       0.022524577 0.013688182 -0.088184774 0.0042318883
000230 fc c1 90 3d 5f 8f 86 bd 6c 73 08 be 5b 68 a5 3c
       0.070682496 -0.065703146 -0.1332528 0.020191362
000240 1e a6 af bc 41 37 24 be c7 f3 87 bd 31 00 bb bc
       -0.021441516 -0.16036703 -0.06638294 -0.02282724
000250 83 38 85 3c f3 c7 0f bd d6 ff d6 3c 02 90 5a 3d
       0.016262298 -0.035102796 0.026245039 0.053359993
000260 56 c5 50 bd cf b1 22 bd 57 c1 95 3c 13 1c 1f 3d
       -0.050969444 -0.039720353 0.018280668 0.038845133
000270 66 dd 97 3c e6 0a c0 bd a5 b5 56 bd 70 f5 43 3d
       0.018538188 -0.09377079 -0.052419323 0.04784149
000280 db 57 87 bd 60 17 af 3d 4e 86 05 be 7a e1 83 bc
       -0.06608554 0.0854938 -0.13039514 -0.016098727
000290 38 a9 01 be 76 cf b2 bd 5d 50 6f bd 37 df a6 bd
       -0.12662208 -0.08730976 -0.05842625 -0.081480436
0002a0 38 a5 2b 3d 3e e5 f4 bc 23 d4 e4 3d e6 8c 8c bb
       0.04190561 -0.029894467 0.11173274 -0.0042892573
0002b0 fc 3f 87 bd b4 7a 82 3d 55 d5 86 3d ed 22 9f 3c
       -0.06604001 0.0637106 0.065836586 0.019425834
0002c0 5a 0a 15 3d 9e bd 8a bd f9 dc 07 be 38 6b 5f 3d
       0.036386825 -0.06774448 -0.13267888 0.05454561
0002d0 1a c1 2a 3c 43 78 fb 3d cb 83 0a bd 73 02 b1 bd
       0.010422016 0.122787975 -0.033817094 -0.08643045
0002e0 0f ea be bd ed 64 db 3c 52 a1 8a bb 16 83 d0 bd
       -0.09321987 0.026781524 -0.0042306567 -0.10181253
0002f0 f2 fd da bc bf 8c 86 bd a5 b5 01 bd 51 c1 40 bd
       -0.026732419 -0.06569814 -0.03166737 -0.04705936
000300 96 32 16 3e 0d 55 4b 3d de fa 8e bd b2 0d e1 bd
       0.14667735 0.049641658 -0.06981443 -0.1098894
000310 34 7a e2 bb 0d e9 7d bd de c1 46 3d f8 59 f7 3d
       -0.0069115404 -0.061989833 0.04852473 0.12077707
000320 cd 54 82 3c 4e f1 69 3d f7 99 09 bd 2c 50 95 bd
       0.015909577 0.05711489 -0.033594098 -0.07290682
000330 43 e5 ae 3c 7c cd 2c 3c 24 fd 17 bc a7 70 9e bd
       0.021349555 0.010547038 -0.009276662 -0.077363305
000340 b8 f1 47 3c 0f 68 a5 bd c7 ca 13 3d 39 e5 65 3d
       0.012203626 -0.08076488 0.036082055 0.056126807
000350 f3 a7 0b 3e d6 5b cd 3d 62 7b 60 bd 5f 73 bb bc
       0.13638286 0.10027282 -0.054805167 -0.022882162
000360 ae c6 41 bc 43 5f cd 3c 9e 20 76 3e db 94 9f 3d
       -0.011827154 0.025069838 0.2403588 0.07792064
000370 04 48 ea bc 95 c7 61 3d 32 22 e4 3c 03 20 8f 3d
       -0.028598793 0.055121977 0.027848337 0.069885276
000380 89 48 98 bc 21 0d ee 3c ff ba dd bd de 9f 95 3d
       -0.018589275 0.029058995 -0.10826682 0.07305883
000390 79 f2 36 bd d4 fc b4 bc 9a ce bd bd f3 48 90 3d
       -0.044664834 -0.022093214 -0.09267922 0.07045164
0003a0 d7 b4 08 3c f3 73 a2 bd 1b 60 f1 3b 28 da 83 bd
       0.008343897 -0.07932272 0.007366193 -0.064380944
0003b0 f9 ea 7f 3c f7 19 e1 bd 7a ba ca bc b2 c1 46 bd
       0.015619987 -0.109912805 -0.024747122 -0.048524566
0003c0 c4 7a 43 bd d4 e2 2b bd 40 50 f3 bd 0e 0b 9e 3d
       -0.0477245 -0.041964367 -0.11880541 0.07716952
0003d0 c7 c9 57 bd d4 f6 5b 3c 6d 74 f8 3c 33 c4 a5 3d
       -0.052682664 0.013425548 0.030328954 0.08094063
0003e0 e9 4a 40 3d 25 09 68 bd 55 07 bb bd 58 da b1 ba
       0.04694644 -0.056649346 -0.09132258 -0.00135691
0003f0 69 5d ca bd 50 78 03 be e3 af 6c 3d 79 85 15 be
       -0.09881098 -0.12838864 0.057784926 -0.14601697

network_body._body_endoder.seq_layers.2.bias f4 [256]
000000 e8 1d fc bb 24 2e 2d bd 19 75 43 bd 96 0c 95 bb
       -0.007693995 -0.04228033 -0.047719095 -0.0045486195
000010 6d 40 a6 bc 38 b6 21 bb 8f 66 9f bd 7c 3b 28 3c
       -0.020294392 -0.0024675261 -0.077832334 0.010268088
000020 ed 85 30 bc 1c f2 42 3c dc a1 86 bc d9 e7 ed bc
       -0.010774118 0.011898544 -0.016434602 -0.029041218
000030 f0 b6 b9 bc 52 6b 9d bc 5c 7a 4c bd 60 75 b8 3c
       -0.02267024 -0.019216213 -0.04992138 0.022516906
000040 c7 0d b2 bc c4 33 5f bc 7c ae e6 bc f4 80 4e bd
       -0.021735085 -0.013623182 -0.028159373 -0.050415948
000050 28 35 07 bd 98 dc 0c bd d5 ac 83 3c 27 61 0a bc
       -0.033009678 -0.034390062 0.016073624 -0.0084460145
000060 6e e3 c3 3b 20 00 3b bd b6 e7 f5 3b 56 9e 92 3b
       0.0059780395 -0.045654416 0.0075044287 0.0044744415
000070 26 47 6c bd 41 28 18 bc 35 f8 17 bc 28 83 3a bd
       -0.05768504 -0.009286941 -0.009275486 -0.045535237
000080 1e 23 70 3c ff 6c d0 bc 9a 59 f5 3c 9e 1f 5c bc
       0.01465681 -0.025442598 0.029949952 -0.0134352725
000090 93 a4 a4 3b a9 9b 04 bd 10 ae a7 bc ce 93 c1 bc
       0.0050245016 -0.03237501 -0.020468742 -0.02363005
0000a0 5d 78 e9 bb aa 6d c6 bc 3f 68 2d bd 54 99 39 bd
       -0.007124944 -0.024222214 -0.042335745 -0.04531224
0000b0 85 84 36 bd ed 81 58 bc 61 c2 de bc 11 bf 2d bd
       -0.044559974 -0.0132145705 -0.027192296 -0.042418543
0000c0 c2 19 3b bd ad c1 09 bd 69 db f4 bc dc 8d 6d bc
       -0.04567886 -0.03363197 -0.02988978 -0.014499154
0000d0 49 19 bc bb e9 f6 43 bd 18 9e cb bc b6 52 60 bb
       -0.005740319 -0.047842894 -0.024855658 -0.0034228987
0000e0 2d ca 6d bd 25 0a 16 38 7d 4f e4 bc c7 ed 83 bd
       -0.058054138 3.5772235e-05 -0.027869934 -0.06441837
0000f0 0e d5 35 bd b6 79 82 bd 38 2d e2 bb b8 7a 8a bc
       -0.044392638 -0.06370871 -0.006902363 -0.01690422
000100 d8 5c 84 bc 29 b6 32 bd 3b 5b af bc 0d ce 86 bc
       -0.016157553 -0.043630753 -0.021405807 -0.016455675
000110 90 a2 69 bd 84 fa cf bc ba 19 94 bc 51 df 8f 3a
       -0.057039797 -0.02538801 -0.018078674 0.0010976588
000120 19 58 51 3c 14 4e 04 bd 54 af 1f bd 64 28 a6 bc
       0.012777352 -0.032301024 -0.038985565 -0.020282932
000130 8f 97 28 b9 fd 3c fe bc c8 2a a7 bc 80 6e f0 bc
       -0.00016078188 -0.03103494 -0.020406142 -0.029349566
000140 42 28 1a bd 9e b8 8f bc fa 7b 4e bd af 55 94 bd
       -0.03763605 -0.017544087 -0.050411202 -0.07242905
000150 2e 8b d4 bc 89 7c 28 bd ca eb 84 bc 82 2f 68 bc
       -0.025945272 -0.04113439 -0.016225714 -0.014171483
000160 50 b3 32 bd b7 57 dd bc eb 4e f4 bc b9 bd 32 bd
       -0.043628037 -0.027019365 -0.029822787 -0.043637965
000170 5f 19 13 bd d2 18 ab bc 38 63 30 bd b5 6c 7d bb
       -0.035912868 -0.020885859 -0.043063372 -0.003866953
000180 b7 5b 6d bc e1 cc 13 bd f7 1a 8d bb dc 4a 3d bd
       -0.014487199 -0.03608406 -0.004306193 -0.04621397
000190 e0 f2 a7 bc 46 d7 de bc 46 87 8a bd dd ac 85 bd
       -0.020501554 -0.02720226 -0.067640826 -0.06527112
0001a0 f3 f2 00 ba 4c a8 22 bd cd 49 06 bc 56 c9 99 bc
       -0.0004919015 -0.03971128 -0.008196306 -0.018772762
0001b0 08 da b0 bc d7 dc 39 bd ed a8 f5 bc 60 47 a4 bc
       -0.02158834 -0.045376625 -0.029987777 -0.020053566
0001c0 c1 cc 3d 3b ce 0d fd bc 93 ca c7 bc ff 82 eb 3b
       0.0028961154 -0.030890372 -0.024388587 0.007187247
0001d0 7b 9d 1d bd 9e 4e 8c 3c 44 18 16 3b f5 d1 df bc
       -0.038480263 0.017127331 0.0022902647 -0.027321795
0001e0 81 b7 8d 3c 3e b1 27 bb ae a7 9e bc 70 fd 24 bd
       0.017299416 -0.0025587822 -0.019367065 -0.04028076
0001f0 77 9a d9 bc e9 f2 a4 bc 12 62 5f bd eb e6 f0 bc
       -0.026562912 -0.02013536 -0.054536887 -0.029406985
000200 4b 15 6c 3d 63 0c 0c bc fb aa d4 bc 58 7d 76 bc
       0.057637494 -0.008547875 -0.025960436 -0.015044533
000210 82 20 87 bc 28 ed 2b bd 90 42 fc bc 95 51 bd bc
       -0.016494993 -0.041974217 -0.030793458 -0.02311019
000220 f1 a7 74 bc d5 68 ee bc b9 d1 90 3c 03 b4 c6 3b
       -0.0149326185 -0.029102722 0.017678129 0.0060639395
000230 66 59 f0 bc 7f 79 b3 bc 40 5e fd bc e5 b7 c2 bb
       -0.029339503 -0.02190852 -0.030928731 -0.005942332
000240 79 11 f9 bc bd 17 5c bd e3 2b 16 bd 1b f0 ae bb
       -0.03040384 -0.053733576 -0.036662947 -0.0053386814
000250 9e 31 fa bc 8c 00 37 bc bd 01 90 bc 6f 1d 07 bb
       -0.030541237 -0.011169564 -0.017578954 -0.002061691
000260 e4 fe 86 bb e2 98 43 bd a0 6d a8 bc 37 67 d5 bc
       -0.004119741 -0.047753222 -0.020560086 -0.026050193
000270 21 6c 0e bd ba 6d 99 bc 6f bc f8 bc 71 40 8f 3c
       -0.03477109 -0.01872908 -0.03036329 0.017486783
000280 f3 0a 53 bc ce 16 26 bc 68 ce 19 bd f2 f3 42 bd
       -0.0128810285 -0.010137273 -0.03755036 -0.047595926
000290 38 b6 1a 3d d4 05 92 bc c4 99 d6 bc 94 57 d2 bc
       0.037771434 -0.017825045 -0.026196368 -0.025676526
0002a0 59 1c e9 bc 23 0f 51 bd c0 97 80 3c 0d bf 73 bd
       -0.0284559 -0.051039826 0.01569736 -0.059508372
0002b0 37 c0 c9 bc 8e 48 d3 3c bf a3 c7 bc 8f 3b a5 bc
       -0.024627788 0.025791433 -0.024370072 -0.020170001
0002c0 aa ba 3d bd ef b1 20 bb 1d c7 02 bd 51 20 cf bc
       -0.046320595 -0.002452012 -0.03192817 -0.025283964
0002d0 cc 06 e8 bc 99 2a 49 bd 7e 60 24 bc 06 75 2b bd
       -0.028323554 -0.04911289 -0.010032771 -0.04185965
0002e0 57 e6 18 bd cc 45 ae bc 22 d9 38 3c 47 11 98 bc
       -0.037329044 -0.021273516 0.011282237 -0.018562926
0002f0 83 d8 ff bc 18 d8 48 bd 5b d8 36 bc d2 75 95 bc
       -0.03123117 -0.049034208 -0.011159982 -0.018244658
000300 ad ae 04 bc fb 16 55 bc 59 52 ba ba 49 21 86 bc
       -0.008098287 -0.013005967 -0.0014215215 -0.016373293
000310 5a aa c8 bc cc 1f ec bc a4 44 be bc af f6 3c bd
       -0.024495292 -0.028823756 -0.02322609 -0.046133693
000320 cb ed b5 bc 6a 2c 0f bd 19 fc 47 bd 6c c9 08 bb
       -0.022208115 -0.034954466 -0.048824403 -0.002087201
000330 0d a4 55 bd d7 66 15 bd 6e 98 83 bc 0f c9 d8 bc
       -0.052158404 -0.03647503 -0.016063895 -0.02646306
000340 bc 25 80 bd 19 58 8b bd 7b 29 4b bd 5a ef e1 b8
       -0.06257197 -0.06803913 -0.049600106 -0.00010773419
000350 7a a8 81 bc 83 05 d7 bc 8e 40 aa bc 54 e4 15 bd
       -0.015827406 -0.026247745 -0.020782735 -0.036594704
000360 1d fd 00 bd b1 2b e8 bc 21 b0 40 bd b7 11 c3 bc
       -0.031491388 -0.028341146 -0.04704297 -0.023812158
000370 b2 0e dc bc 54 0d 4e bd ac 78 eb bc fb 3b 33 bd
       -0.026862476 -0.05030568 -0.028744064 -0.043758374
000380 32 d4 e3 bc 8d 09 0a bd 86 f2 18 bc 6d bd 4a bc
       -0.027811144 -0.033700515 -0.009335166 -0.012374264
000390 17 07 cb bc 32 45 90 bc 66 a7 c1 bc 0f c0 b6 bb
       -0.024783654 -0.01761112 -0.023639392 -0.0055770944
0003a0 d3 88 46 bc f7 93 17 bd 55 ca e0 3b ef 25 08 bc
       -0.012117582 -0.037006345 0.0068600574 -0.008309825
0003b0 6e 23 ad 3a 47 ac 6b bc 71 c9 b5 bc 56 5e 9d bb
       0.0013209411 -0.014384336 -0.022190781 -0.0048025055
0003c0 64 86 e2 bc 8d fb c6 3b 0f d7 23 bc 7f e3 af bc
       -0.027651973 0.0060724677 -0.010000004 -0.021470783
0003d0 87 16 eb bb 1d 0b d8 bc 47 19 32 bb e3 1b 98 3a
       -0.0071743163 -0.026372487 -0.002717571 0.001160499
0003e0 d5 c4 04 ba b3 06 d0 bb 2d 61 41 3b f4 90 a6 bc
       -0.00050647306 -0.006348455 0.0029507384 -0.02033279
0003f0 42 19 8d bc b4 dd ef bc 44 69 c8 bc 82 e3 8e bc
       -0.017223958 -0.029280521 -0.024464257 -0.017442469

action_model._discrete_distribution.branches.0.weight f4 [3, 256]
000000 c5 34 04 bc a5 2f d3 3c 62 e8 81 3c 53 a9 f6 bc
       -0.008069222 0.025779555 0.01585788 -0.030110037
000010 da 92 c7 3c 21 7e 18 3d 40 87 08 bc 54 da dc bb
       0.024362016 0.03722966 -0.008333027 -0.006739894
000020 bc 80 f0 bc 53 e8 88 3c a2 51 45 3c 3a 12 e9 bc
       -0.02935826 0.016712343 0.012043389 -0.028451074
000030 5d 86 1d 3d 58 36 57 bc 09 7b a5 bc c1 60 c5 3b
       0.038458217 -0.013135515 -0.02020027 0.006023497
000040 92 3a e4 3b c8 34 2e bb 38 1e f7 bc 7f d7 5b bc
       0.00696499 -0.0026581753 -0.030165777 -0.0134180775
000050 b1 d1 41 3b 49 30 03 3d ec e6 c8 3c 85 a1 6d bc
       0.0029574449 0.03202847 0.024524175 -0.014503841
000060 e4 73 04 3d c7 28 1d 3d c7 26 09 3c 63 4d 2c bd
       0.032337084 0.038368966 0.008371062 -0.04206599
000070 44 9e 00 3c 71 3d 0d bd e5 9f 36 bc 21 27 a7 3c
       0.007850233 -0.034482423 -0.01114652 0.0204044
000080 cc fd 11 bd 48 d1 bf 3c 5d 99 18 bd 15 c8 d8 3b
       -0.03564243 0.023415223 -0.037255634 0.0066156485
000090 c9 7e 1c 3c c6 0c 58 bc a7 28 9e bb 41 79 62 3b
       0.009551712 -0.013186639 -0.0048266235 0.0034557136
0000a0 ed fe 77 bc 34 02 7b ba 38 70 a4 bc 8b e3 19 bc
       -0.015136463 -0.00095752184 -0.020073041 -0.009392629
0000b0 7d 31 cc 3b a8 03 ed 3b 56 37 9d 3b 2e 73 85 bc
       0.0062314854 0.007233102 0.0047978563 -0.016290274
0000c0 d5 19 ed 3b e5 8e 9e bc 6d aa 82 3c 16 02 0b 3c
       0.0072357454 -0.019355247 0.015950406 0.008484384
0000d0 a7 ca 1e bc ac ad f5 ba ad 13 da bc 90 d4 8a bc
       -0.009691871 -0.0018743775 -0.02662071 -0.01694706
0000e0 e6 7c 3c bc ee a8 14 3d 38 a5 f5 3c b4 41 c1 bb
       -0.0115043875 0.036293916 0.029986009 -0.005897725
0000f0 6a f2 07 bc 3b 01 48 bb 51 ce a2 3c d2 da 61 bc
       -0.008297542 -0.0030518312 0.01987377 -0.013785081
000100 95 4e 02 3c b8 3f 48 bc 63 e3 71 bb 52 94 74 3c
       0.007953306 -0.012222223 -0.0036909215 0.01492794
000110 52 da 23 bc b1 3c bd 3c 97 7c a3 bb 52 2e 21 3c
       -0.010000782 0.023100229 -0.0049892175 0.009837704
000120 ff ac bf bc 15 06 63 bc 8c 21 a8 3c 06 fa b0 bc
       -0.02339792 -0.013856431 0.020523809 -0.021603595
000130 ac 0e 52 bc 54 ac 8c bc 0d 32 ed bb 8a e3 7b bb
       -0.012820881 -0.017172016 -0.0072386325 -0.0038435184
000140 5c 23 10 bc a3 35 4c 3c f8 15 42 3b 96 4a d6 b9
       -0.008797493 0.01246396 0.0029615145 -0.00040872832
000150 57 5d 1e bc 41 8c 8a 3c 8c 01 16 3d bd 5f 27 3c
       -0.009665809 0.016912581 0.03662257 0.010215697
000160 c4 a6 df 3c 01 ef 13 3c b4 d8 3f 39 58 97 e4 bb
       0.0273012 0.009029151 0.00018295908 -0.0069760494
000170 4e bc ad 3b 46 ec 47 3d 19 bc ca bc ca aa f4 3c
       0.0053019887 0.048809312 -0.024747895 0.029866595
000180 9d 1e 86 bc ee a2 d5 bc 7d dd 82 3c a4 75 5e bc
       -0.01637202 -0.026078667 0.015974754 -0.013577852
000190 aa 3f 4d bc 0f 8c 29 bc 2a 3a 30 bd 82 73 1c bc
       -0.012527386 -0.010348334 -0.04302422 -0.009549024
0001a0 8e e6 82 3b 23 91 77 bb 35 f0 11 3d a7 35 60 bc
       0.0039947694 -0.0037775717 0.03562947 -0.013684667
0001b0 63 46 ae 3c f6 97 5b 3c b3 ed 34 3b e3 32 e2 3c
       0.021273797 0.0134029295 0.00276075 0.027612155
0001c0 ef d5 80 bc ed 51 32 3c 99 24 aa bc 24 fa ec bb
       -0.015727011 0.01088379 -0.020769404 -0.0072319675
0001d0 fe 03 15 3c 8d 3a 06 3c 44 49 bb 3c 1a 0d 17 3d
       0.00909519 0.0081926705 0.022862084 0.03687773
0001e0 89 5b 11 bd 0d e7 3b 3b ac f8 73 bc 3f fc 54 bc
       -0.035487685 0.0028671653 -0.014890831 -0.012999593
0001f0 2d f8 64 3d 5f c2 6c 3b 37 60 6f bc 1e 04 70 bc
       0.05590074 0.0036126596 -0.014610342 -0.014649419
000200 a6 34 f9 3c f3 16 7f 3a c1 e3 95 bc 35 02 2d bc
       0.030420613 0.0009730898 -0.018297078 -0.010559608
000210 ec 61 04 bd 0c 5b 96 bc d6 c0 2f 3c 5d 61 a4 ba
       -0.032319948 -0.018353961 0.010727128 -0.0012541224
000220 3d bd 8d 3b ba b1 aa 3b 92 87 89 3c 5f 16 92 bc
       0.0043255375 0.005209175 0.016788278 -0.017832933
000230 85 16 2b bb 9d dd 43 bb ea c3 62 bb 5f 74 53 bc
       -0.0026105952 -0.002988673 -0.0034601637 -0.012906163
000240 fa 28 b8 bc 82 9b c5 3c 95 72 0e 3d e9 e7 59 ba
       -0.022480477 0.024122003 0.034777243 -0.00083124504
000250 54 04 ff bc b3 2c 6e 3d 48 48 97 3c a0 20 2e bd
       -0.031129993 0.058148097 0.018467084 -0.042511582
000260 03 c2 d9 bc 28 db be 3c 76 e5 83 3c 45 c2 21 bd
       -0.02658177 0.023297861 0.016100626 -0.03949191
000270 7a 6e b7 3c 9f 81 27 bc 8d b1 bc bc 10 af 86 bd
       0.022391547 -0.010223775 -0.023033882 -0.06576359
000280 d5 a7 24 3d cb 17 e7 bb 0d 1a a7 3c 91 57 a9 b9
       0.04019912 -0.007052397 0.020398164 -0.00032299434
000290 11 d0 fe bb 7d 1c a4 bc eb eb b5 3c 9d 23 66 bc
       -0.0077762683 -0.020033116 0.022207221 -0.014046577
0002a0 d2 39 01 3d 2c 28 63 bc 98 e7 8a 3c a5 27 1b bc
       0.031549282 -0.013864558 0.016956136 -0.009469901
0002b0 7d 8a 23 bb 4c 1a 65 3c 64 41 20 3d 12 54 4c bc
       -0.0024954372 0.01398332 0.03912486 -0.012471216
0002c0 2b be 58 3d 6f a2 e5 bc c2 6b 7d 3c 6c c3 d6 3b
       0.052915733 -0.028031556 0.015467586 0.006554058
0002d0 3c 61 a8 bb 2c cf ce 39 e1 b5 05 bc a3 6f 81 bc
       -0.0051385444 0.00039445737 -0.008161039 -0.015800303
0002e0 af b8 7a 3c 78 01 9b 3c a0 38 bc 3c a9 31 37 3c
       0.015302821 0.018921599 0.02297622 0.0111812735
0002f0 f8 6a 1d 3b f5 11 25 3c ab a1 29 3c cf 91 94 3c
       0.0024020057 0.010075082 0.010353486 0.018135933
000300 24 94 68 3c 87 39 4b 3d 0a 69 18 bc 32 97 23 bc
       0.014195476 0.04961541 -0.009302387 -0.009984778
000310 fc 06 42 3c e3 ea dc b9 52 82 f1 3c 3c 76 15 3c
       0.0118424855 -0.00042136674 0.029481087 0.009122428
000320 0b c7 8a bc 23 9c b2 3a f8 fa 49 bc 93 bc 09 3d
       -0.016940614 0.0013626855 -0.012327902 0.033627104
000330 e3 02 cc 3c 35 40 b2 bb 89 e1 69 bc 54 99 5a 3d
       0.02490372 -0.005439783 -0.014274963 0.05336888
000340 45 d3 49 3b 02 c9 01 3c 09 f1 e8 bc 69 74 de bb
       0.0030796092 0.007921459 -0.028435247 -0.0067887795
000350 6f 76 0a bd e3 ae 08 3c ba 99 99 3b 15 2c 31 3d
       -0.033804353 0.0083424775 0.004687515 0.04325493
000360 2c 92 d8 3b eb 9c 55 bb 21 00 60 ba a9 fa fd 3a
       0.006609222 -0.003259475 -0.0008544941 0.0019377071
000370 82 b0 9c bc fa 1e e9 bc ea 48 fe bc 8c 82 26 3d
       -0.019127134 -0.028457154 -0.031040628 0.040651843
000380 10 01 58 bc 63 7a e4 3c 68 29 01 3c 3e 7a c8 bc
       -0.013183847 0.02789039 0.007883407 -0.024472352
000390 fd b9 39 3d ca e1 fb 3c fa 5f b4 3b 53 66 a8 3a
       0.045343388 0.030747313 0.0055046054 0.0012847878
0003a0 b0 39 2f bc 42 90 ae ba 90 0a 28 3d 34 d8 52 3c
       -0.010694906 -0.0013318139 0.0410257 0.01286893
0003b0 a1 bf ec bc 20 c2 a9 bc 44 0b 9b bc bf 4f 4f 3c
       -0.02889997 -0.020722449 -0.01892627 0.01265329
0003c0 45 e0 42 bd 81 57 01 3c 1c af 6b bc dc 4f 6f 3d
       -0.04757716 0.007894398 -0.014385011 0.05842577
0003d0 76 27 4e 3d 0f 15 1d 3b 0c bf 22 bc 92 c5 89 3c
       0.0503306 0.002396885 -0.009933244 0.016817842
0003e0 9e f4 40 3d 11 e4 53 bb 89 56 59 bc 5a 62 a9 bc
       0.047108285 -0.0032331983 -0.0132652605 -0.02067678
0003f0 c6 5e ed 3c 3e 0a 04 3d ef 10 8f 3b 39 e9 a6 bc
       0.028975856 0.03223633 0.0043660323 -0.020374881

action_model._discrete_distribution.branches.0.bias f4 [3]
000000 cc 99 80 3b 33 6a 16 3c 2c fe 3d bc
       0.003924584 0.009180593 -0.011596244

action_model._discrete_distribution.branches.1.weight f4 [3, 256]
000000 ca 8c 41 3c 01 4d c1 bc c3 e6 e6 bb 95 7a 5e bc
       0.011813352 -0.023596289 -0.007046552 -0.0135790305
000010 1b 9c 04 bd 42 54 2a bb 4b f7 a7 3c 1c c9 81 3c
       -0.032375436 -0.0025990163 0.02050366 0.015842967
000020 d3 26 ee 3a e4 9e 89 3c 6b 0f 4f 3c 24 98 e1 bc
       0.001816953 0.016799398 0.012637953 -0.027538367
000030 f4 f8 55 3c 27 6c 58 3c 4b 42 ab 3c b9 92 00 bc
       0.013059843 0.013209379 0.020905634 -0.007847481
000040 d6 67 b8 3c 84 cb 86 bc d6 72 05 3c cf 61 97 3c
       0.02251045 -0.016454466 0.008145055 0.018479256
000050 77 69 49 3d c5 61 ca 3b e4 ef 13 bc 82 d0 40 3a
       0.049172845 0.006176206 -0.009029362 0.0007355289
000060 62 c2 00 bd 9e 55 36 bc 26 6a a7 3c 36 eb 5b 3c
       -0.031435378 -0.011128811 0.020436358 0.013422778
000070 ca f1 eb bb 52 72 df 3c 6e e9 19 bd 13 e9 c8 3c
       -0.0072004544 0.027276192 -0.03757613 0.024525201
000080 80 4c 92 bc f2 51 a5 3c b5 a2 43 3c a7 dd 14 3d
       -0.017858744 0.020180676 0.011940648 0.036344197
000090 9d 28 25 bd 5e 99 01 bc dc 1c 17 bc 9a 7d 14 3a
       -0.040321935 -0.007910101 -0.009223189 0.0005664468
0000a0 a9 9f 07 bc 76 b3 7f bc c7 1f 0d 3d 58 5c 86 3c
       -0.008277812 -0.015606752 0.034454133 0.016401455
0000b0 03 c6 34 3c c8 67 82 3b b2 5e ea 3c 3c a0 59 bc
       0.011033538 0.003979657 0.028609607 -0.013282832
0000c0 d4 13 29 bd d5 6a 15 3d dd 35 33 3b 82 35 2b 3d
       -0.041278675 0.036478836 0.0027345337 0.041799076
0000d0 46 e6 c5 3a 5e 19 c1 3c 97 bf 7f 3b ab 6b 7e bc
       0.0015098534 0.023571666 0.0039024109 -0.0155286
0000e0 d0 b9 ba bb b8 14 5c 3c 41 03 06 3d ec 0a 93 ba
       -0.00569842 0.013432674 0.032717947 -0.0011218465
0000f0 88 9e 1f 3c 84 65 cb bc 93 9c 54 b9 33 15 4e 3c
       0.009742387 -0.02482868 -0.00020276224 0.0125782965
000100 c6 b0 bb bc cd f4 1b bd 3e d7 4d 3c 55 d1 e0 3c
       -0.02291144 -0.038075257 0.012563525 0.027443567
000110 af 13 35 3c fe 5b fa bb 5a f4 9c 3b ca 64 1a 3b
       0.011052056 -0.007640361 0.004789871 0.002355861
000120 10 21 13 3d de 69 0b bb 86 94 a8 bb e8 73 ca 3c
       0.035920203 -0.0021272819 -0.0051446585 0.024713472
000130 59 1e 69 3c bc 40 10 3c 8d 81 0c bd 66 79 5a 3c
       0.014228427 0.008804496 -0.034303237 0.013334608
000140 89 40 e6 3b 01 a4 d9 3b 48 95 fd 3c c8 83 f4 3c
       0.007026736 0.0066418652 0.030954972 0.029847994
000150 7b 5c dc 3b 1e be 2c bb ca 53 26 3c 33 04 a8 bc
       0.0067248917 -0.0026358436 0.010151813 -0.020509815
000160 61 87 e0 bc db 8d 7f 39 92 47 09 3a 7f b7 ff bc
       -0.027408304 0.0002437154 0.00052368 -0.031215427
000170 a6 54 9b bc 98 b3 bc 3c 80 e6 cb bc d5 6c c7 3c
       -0.018961262 0.023034856 -0.024890184 0.024343887
000180 3e 65 5b bc 23 84 ab 3c 06 ed 6b bb 84 94 97 bc
       -0.013390837 0.020937031 -0.0035999431 -0.018503435
000190 02 1e 8e 3c 1e d0 b9 bc 1d a5 1a bc 4e 80 65 3b
       0.017348293 -0.022682246 -0.00943878 0.0035019103
0001a0 ba d2 cc bb 2d 70 b0 bc cb 21 33 3d b4 39 b6 b9
       -0.0062507065 -0.021537865 0.0437334 -0.00034756737
0001b0 61 e6 0f 3c 2d 65 bd ba b5 cc ff 3b c0 74 b5 bc
       0.008782954 -0.0014449708 0.0078063854 -0.022150397
0001c0 5c d1 d4 bc 84 c3 0b 3c e1 95 47 3c a9 44 19 3d
       -0.025978737 0.008530501 0.01218173 0.037418995
0001d0 2d 58 54 3b 38 51 da bb b8 0d c3 3b 08 46 bf 3b
       0.003240119 -0.006662514 0.005952563 0.005837206
0001e0 73 eb eb bc 43 82 b1 3c 68 7e 45 3c 88 71 40 bd
       -0.028798794 0.021668559 0.012054063 -0.04698327
0001f0 2b 48 50 3c 55 2d 3e 3c 17 2e bb bc 4c d7 8c 3c
       0.012712519 0.011607488 -0.022849126 0.017192505
000200 41 e7 b5 3c c7 ba 55 3c 28 55 2e bd b9 1e f5 3b
       0.022204997 0.0130450195 -0.04256168 0.007480469
000210 35 a8 b8 bc e8 2c 91 3c 8b 67 82 3b c8 cf b9 3a
       -0.022541145 0.017721608 0.0039796284 0.0014176304
000220 c3 fc 99 bb a7 3c 00 bb 73 9c 6f bd b5 db ae bc
       -0.004699321 -0.0019567402 -0.05849881 -0.021344999
000230 ca ae b1 bb a4 61 2b bc 66 91 35 bb c9 b7 12 3d
       -0.005422448 -0.010460291 -0.0027705072 0.035819802
000240 1e 5f 82 3c c5 b9 06 bd ec c5 da 3c 97 62 bf bb
       0.015914496 -0.032892007 0.026705705 -0.0058406102
000250 01 2e 8b 3c 1a f3 80 3c 86 12 41 3b ba 58 2f bc
       0.01698971 0.01574092 0.0029460504 -0.010702306
000260 ac 64 1f bc 09 ff e5 3c 90 63 e5 bb fa 16 8d bb
       -0.009728592 0.028075712 -0.007000394 -0.0043057175
000270 ac 75 8e 3c 5b 1d 2d bd 13 43 fe bb 0e 6b 83 3c
       0.017390095 -0.042264324 -0.0077594607 0.016042259
000280 ff e4 31 bb 86 e3 57 3b 3c 7c ee 3b 21 46 af bb
       -0.002714455 0.003294201 0.0072779935 -0.005348936
000290 e7 db c7 bc 7a f1 ad 3c bd 8a 7e bc d0 01 d0 3b
       -0.02439685 0.021233309 -0.0155360075 0.0063478723
0002a0 a9 0c d8 bc b2 6f 80 bb 11 ac c5 3c 7b f7 e8 3b
       -0.026373224 -0.003919565 0.0241299 0.00710958
0002b0 49 a7 71 3b 9c fe 1d bc 97 20 51 3c f5 42 a5 3c
       0.0036873391 -0.009643223 0.012764118 0.02017353
0002c0 1f 87 c1 bc d6 7b 0f 3d cd 02 30 bd dc cf 14 bb
       -0.023624001 0.03503021 -0.04297142 -0.0022706902
0002d0 b6 6d 4b 3c 26 d5 e9 bc ef ae ee bb cf 42 e8 3c
       0.012416294 -0.02854402 -0.0072840373 0.02835217
0002e0 06 31 c5 bb 91 59 01 3d 5e c3 bc 3c 6f 29 f4 3b
       -0.006017807 0.031579558 0.023042377 0.0074512283
0002f0 71 87 0c 3d 59 b7 db bb 34 49 00 bb 72 85 3a bc
       0.034308854 -0.0067052064 -0.0019574882 -0.011384355
000300 69 cd a4 bb 4d 5a 5c bb 12 33 61 bc 86 84 36 3c
       -0.0050293696 -0.003362316 -0.013745086 0.0111399945
000310 aa 80 3b bb ef a5 4c 3c f1 48 3d 3d 78 54 f3 3b
       -0.0028610625 0.0124907335 0.04621214 0.007425841
000320 5d 4b d3 3c ed 5b 84 bc 10 48 69 3c 80 70 01 3d
       0.025792772 -0.016157115 0.014238372 0.03160143
000330 a5 22 95 bc eb 75 e7 bc bd 19 5f 3c f0 f8 31 3d
       -0.018204996 -0.02825447 0.013616976 0.043450296
000340 b2 b5 c1 bc c4 aa 83 bc eb 6a f0 bb d8 c6 d8 bc
       -0.02364621 -0.016072638 -0.0073369644 -0.026462004
000350 df b8 98 bc bf 4a 2e bc 00 2c 1c bc 3f 85 81 3c
       -0.01864284 -0.010637938 -0.009531975 0.015810607
000360 68 38 aa bc e5 26 a4 bc 66 cb 3b 3c a2 c4 94 bc
       -0.02077885 -0.020038078 0.011462068 -0.018160168
000370 cf 4c 44 bc 35 8a 15 bc 5b d6 0c bd 8b 24 0a bc
       -0.011981203 -0.009127189 -0.034384113 -0.008431564
000380 dc e6 08 3c 17 e2 66 ba 18 98 19 3d 95 d2 cc bb
       0.008355822 -0.0008807494 0.037498564 -0.0062506893
000390 db 56 f2 bb 89 10 7e 39 e0 5e 3c bc f6 fd 8c 3c
       -0.007395608 0.00024229487 -0.011497229 0.017210942
0003a0 89 06 1e bc 90 32 df bc a5 3a 30 bd d2 ca 23 3c
       -0.009645113 -0.02724579 -0.043024678 0.009997087
0003b0 d2 d7 b7 bb ad 88 f3 3b cd 3e eb bb 8c c1 3e bc
       -0.0056104446 0.0074320645 -0.0071791173 -0.011642825
0003c0 0c 93 f1 bc e4 58 01 bd 83 fa c7 3b b1 d7 90 bc
       -0.029489063 -0.031578913 0.0061028614 -0.017680975
0003d0 f5 94 7d bc 02 15 e3 39 3f 1a ad bb 91 ba 97 3c
       -0.015477409 0.00043312466 -0.00528267 0.018521579
0003e0 e8 53 ff ba c2 14 89 3c f9 42 9b 3c ac 82 78 bc
       -0.0019479962 0.01673353 0.018952833 -0.015167873
0003f0 96 29 04 3d 7f 11 a8 3b 8d 69 96 3c e4 56 ec ba
       0.032266222 0.005129039 0.018360877 -0.0018031267

action_model._discrete_distribution.branches.1.bias f4 [3]
000000 4b 83 e8 bb dc 5e e2 bc e7 f7 04 3d
       -0.0070957295 -0.027633123 0.03246298
